checkpoints/trained_generator_TCNGAN_net_1_epoch_0.pth (torch, 643190 bytes, 31 tensors)

bias f4 [80]
0	0xbf794b0a	-0.97380126
1	0x3f627e61	0.8847409
2	0x3f3930b0	0.72339916
3	0xbf5417fa	-0.82849085
4	0xbf483090	-0.781991
5	0x3e3d0326	0.18458232
6	0xbf5167db	-0.81799096
7	0x3c9f9836	0.01948176
8	0x3e85e7a5	0.26153293
9	0x3f0a5b3b	0.54045457
10	0x3f5f38cc	0.8719604
11	0x3e207428	0.1566931
12	0x3f79e811	0.9761973
13	0x3f37bad6	0.71769464
14	0xbda492d1	-0.080358155
15	0xbf741c7e	-0.95355976
16	0x3d940ce9	0.07229025
17	0x3e8e07f6	0.2774045
18	0xbe6ac164	-0.22925335
19	0xbe3438e8	-0.17599833
20	0xbee50f49	-0.44738224
21	0x3f7473c0	0.9548912
22	0xbf579348	-0.8420911
23	0x3f09ff8e	0.5390557
24	0x3e7825e8	0.2423321
25	0xbe521b3b	-0.205182
26	0x3ec35c59	0.38156393
27	0x3f50e980	0.8160629
28	0xbecc078a	-0.39849502
29	0x3f4fc39a	0.8115784
30	0x3e3ff4f2	0.18745783
31	0xbf1da48d	-0.6157921
32	0x3ec6644e	0.387484
33	0x3f2608b1	0.6485701
34	0xbe389264	-0.18024594
35	0xbf80310f	-1.0014971
36	0xbd9e82da	-0.07739802
37	0xbf3cc8f0	-0.73744106
38	0x3e69c79c	0.22830051
39	0xbf676032	-0.9038116
40	0x3f2061b3	0.6264908
41	0xbddda17e	-0.10821818
42	0xbf17891b	-0.5919358
43	0x3f76ede0	0.9645672
44	0xbf13ab72	-0.5768348
45	0xbead48ed	-0.338447
46	0x3f6e5dfa	0.93112147
47	0x3f672743	0.90294284
48	0xbeca7a6c	-0.39546525
49	0x3e152a1b	0.14566843
50	0x3f408e27	0.7521691
51	0x3f21c40f	0.63189787
52	0x3f3b0d31	0.73067003
53	0xbd02b087	-0.03190663
54	0x3eaff424	0.34365952
55	0x3f5629ce	0.8365754
56	0xbebf1505	-0.37320724
57	0x3ef6432f	0.48098132
58	0x3e48a789	0.1959516
59	0x3e98ea48	0.29866242
60	0x3da4beb6	0.08044188
61	0x3f573845	0.84070235
62	0x3f0acbbf	0.5421714
63	0x3f7e09eb	0.99233884
64	0x3f3dbcf6	0.74116457
65	0xbdf13e1f	-0.11779427
66	0xbf4956f9	-0.78648335
67	0x3ec83d76	0.3910939
68	0xbe2806a1	-0.16408779
69	0x3ede5644	0.4342519
70	0xbf67c40f	-0.90533537
71	0xbe47e9a0	-0.19522715
72	0xbf677610	-0.90414524
73	0xbf67839f	-0.9043521
74	0x3caba3b8	0.02095209
75	0xbf0a0c7d	-0.53925306
76	0x3e302ac2	0.17203811
77	0x3f5ac059	0.8544975
78	0x3ecad290	0.3961377
79	0xbe1ae6f7	-0.15127169

weight_g f4 [80, 1, 1]
0	0x3f7065e8	0.93905497
1	0x3a8582a6	0.0010186031
2	0x3ee036b4	0.43791735
3	0x3f040633	0.5157196
4	0x3f00c124	0.5029471
5	0x3f67ed21	0.90596205
6	0x3f482314	0.78178525
7	0x3f63b105	0.88941985
8	0x3cb38422	0.021913592
9	0x3dd89ad0	0.10576403
10	0x3cee378b	0.02907922
11	0x3ebdd29e	0.3707475
12	0x3dc135c4	0.09434083
13	0x3edafc74	0.4277073
14	0x3f1f1b90	0.6215143
15	0x3f0093c6	0.50225484
16	0x3ebf8f97	0.37414238
17	0x3f72f860	0.9491024
18	0x3f520879	0.8204418
19	0x3d484f60	0.048903823
20	0x3f0f6231	0.56009203
21	0x3f656021	0.89599806
22	0x3e580bd8	0.21098268
23	0x3f6a5404	0.9153445
24	0x3f16ba3f	0.5887794
25	0x3f70df8f	0.94091123
26	0x3edb6ce7	0.42856523
27	0x3f7cf782	0.98815167
28	0x3e72a797	0.23696743
29	0x3f3f3850	0.746953
30	0x3e108bf5	0.1411589
31	0x3f0934f4	0.53596425
32	0x3f254583	0.6455919
33	0x3eef1732	0.46697384
34	0x3efb16f6	0.49040955
35	0x3f3ea9e1	0.74477965
36	0x3f532b22	0.8248769
37	0x3d29da20	0.041467786
38	0x3f1b16ec	0.6058185
39	0x3e24aa90	0.1608069
40	0x3f44fc0d	0.769471
41	0x3ec2e644	0.38066304
42	0x3f07d242	0.530552
43	0x3f4d3117	0.8015303
44	0x3f7e2d5a	0.9928795
45	0x3e8ab618	0.27092052
46	0x3e0d1352	0.13776901
47	0x3e66a00a	0.22521988
48	0x3d7a3ba0	0.06109202
49	0x3f1ff943	0.6248972
50	0x3e5966cb	0.21230619
51	0x3f10bdac	0.56539416
52	0x3f48dd65	0.7846282
53	0x3e098478	0.13429439
54	0x3f7fc616	0.9991163
55	0x3f1095dc	0.5647867
56	0x3f2d7bac	0.67766833
57	0x3f4afba1	0.79290205
58	0x3ef3f4ac	0.47647607
59	0x3ef26c41	0.47348216
60	0x3f32f08d	0.698983
61	0x3e3bb9cf	0.18332599
62	0x3c4de9a9	0.012567916
63	0x3f081ead	0.5317181
64	0x3e94e3c2	0.29080015
65	0x3f2130cc	0.62965083
66	0x3f103f53	0.56346625
67	0x3efc0cf1	0.49228624
68	0x3f4c1991	0.7972651
69	0x3ef8790e	0.48529857
70	0x3f35a75b	0.7095849
71	0x3bd25900	0.006419301
72	0x3f45e979	0.77309376
73	0x3f61f5b4	0.8826554
74	0x3e3bd120	0.18341494
75	0x3f7e913e	0.9944037
76	0x3e839de1	0.2570639
77	0x3f3c7a8b	0.73624486
78	0x3dc7e7c8	0.09761006
79	0x3f186126	0.59523237

weight_v f4 [80, 1, 1]
0	0xbf70e882	-0.9410478
1	0xbb455400	-0.0030109882
2	0x3edf3178	0.4359243
3	0x3f04883c	0.5177038
4	0x3f0045a6	0.50106275
5	0xbf676a4a	-0.9039656
6	0xbf47a16a	-0.77980673
7	0x3f63f726	0.89048994
8	0x3cc3df59	0.023910211
9	0x3ddcb050	0.107758164
10	0xbcfe6f80	-0.031059027
11	0xbebccd8f	-0.3687558
12	0xbdbd23f0	-0.0923537
13	0x3ed9f83c	0.425722
14	0xbf1f9e2b	-0.6235072
15	0xbf0093c6	-0.50225484
16	0xbebe8d34	-0.37217104
17	0xbf737aaf	-0.95109075
18	0x3f528886	0.8223957
19	0xbd484f60	-0.048903823
20	0xbf0fe3d6	-0.56207025
21	0xbf64dee0	-0.8940258
22	0xbe580bd8	-0.21098268
23	0xbf69d176	-0.9133524
24	0x3f173b8e	0.5907525
25	0x3f705da6	0.93892896
26	0xbedc7018	-0.4305427
27	0x3f7c7912	0.9862224
28	0x3e70bdd8	0.2350992
29	0x3f3eb70a	0.74498045
30	0x3e0e8a88	0.13920033
31	0x3f09ad5a	0.5378014
32	0xbf24c2ca	-0.64359725
33	0xbef01bd0	-0.4689622
34	0xbefa168c	-0.48845327
35	0xbf3f2c3e	-0.74676883
36	0xbf53ad8e	-0.826867
37	0xbd29da20	-0.041467786
38	0xbf1b99c1	-0.60781485
39	0x3e24aa90	0.1608069
40	0x3f450e6a	0.7697512
41	0xbec3ea95	-0.3826491
42	0x3f08491c	0.53236556
43	0x3f4db36e	0.8035191
44	0xbf7dac1a	-0.9909073
45	0xbe89b6d4	-0.268973
46	0x3e0f0a88	0.13968861
47	0xbe68ab18	-0.22721517
48	0xbd7a3ba0	-0.06109202
49	0xbf1f7686	-0.6229023
50	0x3e5b6b18	0.21427572
51	0x3f1042c0	0.5635185
52	0x3f495f9e	0.78661525
53	0xbe0b6b78	-0.13615215
54	0xbf7f459e	-0.997156
55	0xbf10215a	-0.5630089
56	0xbf2cf932	-0.6756774
57	0xbf4a7af2	-0.7909385
58	0xbef4f898	-0.47845912
59	0x3ef36b48	0.47542787
60	0xbf337124	-0.70094514
61	0xbe39b6d8	-0.18136156
62	0xbc2d5800	-0.010580063
63	0x3f08a134	0.53370976
64	0x3e93dfb4	0.2888161
65	0xbf21b354	-0.6316426
66	0x3f10bf3e	0.5654181
67	0xbefd1098	-0.49426723
68	0x3f4c8d2e	0.79902923
69	0xbef77698	-0.48332667
70	0xbf3525f6	-0.7076105
71	0x3bd25900	0.006419301
72	0xbf466bd6	-0.77508295
73	0xbf626d78	-0.88448286
74	0xbe39ccf7	-0.18144594
75	0xbf7f103a	-0.99634135
76	0xbe82988c	-0.2550701
77	0x3f3cfd1c	0.73823714
78	0xbdc3d230	-0.095615745
79	0x3f17e022	0.59326375

weight f4 [80, 1, 1]
0	0xbf7065e8	-0.93905497
1	0xba8582a6	-0.0010186031
2	0x3ee036b4	0.43791735
3	0x3f040633	0.5157196
4	0x3f00c124	0.5029471
5	0xbf67ed22	-0.9059621
6	0xbf482313	-0.7817852
7	0x3f63b105	0.88941985
8	0x3cb38422	0.021913592
9	0x3dd89ad0	0.10576403
10	0xbcee378b	-0.02907922
11	0xbebdd29d	-0.37074748
12	0xbdc135c5	-0.09434084
13	0x3edafc73	0.42770728
14	0xbf1f1b90	-0.6215143
15	0xbf0093c6	-0.50225484
16	0xbebf8f97	-0.37414238
17	0xbf72f860	-0.9491024
18	0x3f520879	0.8204418
19	0xbd484f60	-0.048903823
20	0xbf0f6231	-0.56009203
21	0xbf656022	-0.8959981
22	0xbe580bd8	-0.21098268
23	0xbf6a5403	-0.9153444
24	0x3f16ba3f	0.5887794
25	0x3f70df8f	0.94091123
26	0xbedb6ce7	-0.42856523
27	0x3f7cf782	0.98815167
28	0x3e72a798	0.23696744
29	0x3f3f3850	0.746953
30	0x3e108bf5	0.1411589
31	0x3f0934f4	0.53596425
32	0xbf254582	-0.64559186
33	0xbeef1732	-0.46697384
34	0xbefb16f6	-0.49040955
35	0xbf3ea9e1	-0.74477965
36	0xbf532b22	-0.8248769
37	0xbd29da20	-0.041467786
38	0xbf1b16ec	-0.6058185
39	0x3e24aa90	0.1608069
40	0x3f44fc0d	0.769471
41	0xbec2e644	-0.38066304
42	0x3f07d242	0.530552
43	0x3f4d3117	0.8015303
44	0xbf7e2d5a	-0.9928795
45	0xbe8ab618	-0.27092052
46	0x3e0d1352	0.13776901
47	0xbe66a00a	-0.22521988
48	0xbd7a3ba0	-0.06109202
49	0xbf1ff943	-0.6248972
50	0x3e5966cb	0.21230619
51	0x3f10bdac	0.56539416
52	0x3f48dd65	0.7846282
53	0xbe098478	-0.13429439
54	0xbf7fc616	-0.9991163
55	0xbf1095dc	-0.5647867
56	0xbf2d7bab	-0.6776683
57	0xbf4afba1	-0.79290205
58	0xbef3f4ac	-0.47647607
59	0x3ef26c41	0.47348216
60	0xbf32f08d	-0.698983
61	0xbe3bb9cf	-0.18332599
62	0xbc4de9a9	-0.012567916
63	0x3f081ead	0.5317181
64	0x3e94e3c2	0.29080015
65	0xbf2130cc	-0.62965083
66	0x3f103f53	0.56346625
67	0xbefc0cf1	-0.49228624
68	0x3f4c1991	0.7972651
69	0xbef8790d	-0.48529854
70	0xbf35a75b	-0.7095849
71	0x3bd25900	0.006419301
72	0xbf45e979	-0.77309376
73	0xbf61f5b4	-0.8826554
74	0xbe3bd121	-0.18341495
75	0xbf7e913e	-0.9944037
76	0xbe839de1	-0.2570639
77	0x3f3c7a8b	0.73624486
78	0xbdc7e7c8	-0.09761006
79	0x3f186126	0.59523237

weight f4 [80, 1, 1]
0	0x3e74740b	0.23872392
1	0xbf67cbf1	-0.90545565
2	0xbf094f65	-0.5363677
3	0x3e90d318	0.28286052
4	0xbf7ce3a4	-0.9878485
5	0xbe85bf50	-0.26122522
6	0xbf1befc0	-0.60912704
7	0xbf81e5f8	-1.0148306
8	0xbe28f001	-0.16497804
9	0x3ca1ab47	0.019734992
10	0x3ce09a4d	0.027417326
11	0xbf8d03c4	-1.1016774
12	0x3f5068c3	0.81409854
13	0x3e858ca8	0.26083875
14	0xbedbb5cf	-0.42912146
15	0x3ec44f3a	0.38341695
16	0x3f8a2ee5	1.0795561
17	0x3e691db7	0.22765242
18	0x3faf22db	1.3682512
19	0xbc871773	-0.016490674
20	0xbb85f8c2	-0.004088492
21	0xbe4fcb9e	-0.20292518
22	0x3eed27b3	0.4631935
23	0x3ed66985	0.4187738
24	0xbf799051	-0.97485834
25	0x3e8660ac	0.2624563
26	0x3f3c22d0	0.7349062
27	0x3ef90f68	0.48644567
28	0x3ed100df	0.40820977
29	0x3e3db97d	0.1852779
30	0x3f392000	0.72314453
31	0xbda44af5	-0.080221094
32	0x3f1540c7	0.5830197
33	0x3f227717	0.63462967
34	0x3ed6fe7f	0.4199104
35	0xbf0dba8a	-0.5536276
36	0x3ece67b7	0.40313503
37	0x3f2e4aef	0.6808309
38	0x3e5f83d6	0.21827635
39	0xbe8e8898	-0.27838588
40	0xbdff1b2e	-0.12456356
41	0x3eaac03a	0.33349782
42	0x3f781dc9	0.9692045
43	0x3f55731d	0.83378774
44	0xbeeda17e	-0.4641227
45	0x3ebf3816	0.37347478
46	0x3f53b69b	0.8270051
47	0x3eee3cd3	0.4653078
48	0xbd41436f	-0.04718345
49	0x3f1f63a7	0.6226143
50	0xbe6a5b16	-0.22886309
51	0xbe9b4252	-0.30324036
52	0xbe94c163	-0.29053792
53	0x3e497574	0.19673711
54	0x3f1dc76a	0.61632407
55	0xbde0ead2	-0.109822884
56	0xbe566515	-0.20936997
57	0xbf955e1c	-1.1669345
58	0xbf1b180f	-0.60583586
59	0xbf4f4baf	-0.8097486
60	0x3ed18103	0.4091874
61	0xbe825372	-0.2545429
62	0xbe97600a	-0.2956546
63	0xbf7a7d75	-0.9784768
64	0xbf15b629	-0.5848108
65	0xbd1e3e23	-0.038633477
66	0xbec27b96	-0.37984914
67	0x3dc8da3f	0.09807252
68	0x3e5bc2de	0.21461055
69	0x3f27d801	0.6556397
70	0x3e3f7bb2	0.1869953
71	0xbf0ce019	-0.55029446
72	0x3e5e95a4	0.21736771
73	0x3eb9c4c2	0.36282927
74	0x3dcf9656	0.10136096
75	0x3e9735f3	0.29533347
76	0x3f56fa35	0.83975536
77	0x3d481ef4	0.048857644
78	0x3e36c0e6	0.17847022
79	0x3e84f41e	0.25967497

bias f4 [80]
0	0x3e3d9efd	0.1851768
1	0xbde0d2fb	-0.10977741
2	0xbf662f8a	-0.8991629
3	0x3d9b6edc	0.07589504
4	0x3f5eb4f7	0.8699488
5	0xbef6fcc1	-0.4823971
6	0x3e789480	0.24275398
7	0xbf6f464a	-0.9346663
8	0x3f7649be	0.9620627
9	0x3daf152b	0.08548959
10	0x3f74c5f7	0.9561457
11	0x3f6bc7c4	0.92101693
12	0x3f730118	0.94923544
13	0xbf6532be	-0.8953055
14	0x3eabf666	0.33586425
15	0xbeab79e8	-0.33491445
16	0xbe373c2a	-0.17894045
17	0xbcef269a	-0.029193211
18	0xbf4fa1da	-0.8110634
19	0xbdc83750	-0.09776175
20	0x3f7f5fbd	0.9975546
21	0xbee5ff9b	-0.44921574
22	0xbda740c9	-0.08166654
23	0x3e60b9fc	0.21945947
24	0x3e0e1f78	0.13879192
25	0xbf456b29	-0.7711664
26	0x3f244dfb	0.6418149
27	0xbf541ae8	-0.82853556
28	0xbee20e3f	-0.44151494
29	0xbe4fafc3	-0.20281892
30	0x3f3c12c9	0.73466164
31	0x3f310038	0.6914096
32	0x3ec8813c	0.39161098
33	0xbf7a4ff9	-0.9777828
34	0xbebd7f1f	-0.37011048
35	0x3eb7607a	0.35815793
36	0xbe8499b9	-0.2589853
37	0xbe51da4b	-0.20493428
38	0x3eb74291	0.35792974
39	0x3ee68eca	0.45030814
40	0xbf669c5e	-0.9008235
41	0x3dd1dbbb	0.102469884
42	0xbf2cde0d	-0.6752632
43	0xbf42cee3	-0.76096934
44	0xbee0ad3e	-0.43882173
45	0xbf7b006a	-0.98047507
46	0x3e6e9f06	0.2330285
47	0x3ee0bf5f	0.43896005
48	0xbc9e703b	-0.019340625
49	0x3e44619a	0.19177857
50	0xbe272f2d	-0.1632659
51	0x3f4bda0c	0.7962959
52	0x3f0bf841	0.5467568
53	0xbefa44ac	-0.48880517
54	0xbee142f2	-0.43996388
55	0x3f294efe	0.6613616
56	0x3edcd351	0.43129972
57	0x3f3757ef	0.7161855
58	0x3f49f324	0.7888663
59	0xbf76b559	-0.96370465
60	0xbf53b455	-0.8269704
61	0x3ef6514d	0.48108903
62	0xbe67ad6f	-0.22624753
63	0x3e94d56d	0.2906908
64	0x3f11badf	0.5692577
65	0xbe44602d	-0.19177313
66	0x3f0d8c00	0.5529175
67	0xbeddddd8	-0.43333316
68	0xbf03409d	-0.5127047
69	0x3f4edf24	0.80809236
70	0x3f39818a	0.72463286
71	0xbf15438c	-0.58306193
72	0x3f2bacd1	0.6706057
73	0xbe9e2a19	-0.30891493
74	0x3f723804	0.94616723
75	0x3e98d1fc	0.29847705
76	0x3ec46ec3	0.38365754
77	0xbd2a3ce2	-0.04156197
78	0x3e98058d	0.29691735
79	0x3eaf9164	0.34290612

bias f4 [80]
0	0x3bbd2803	0.005772592
1	0xbd9f6972	-0.07783784
2	0x3d8bf62f	0.06834065
3	0x3cb283ec	0.02179142
4	0x3c520f40	0.012821019
5	0x3d62d19b	0.055375677
6	0xbcfb51b4	-0.030678608
7	0x3bd8b7a5	0.006613689
8	0x3d6867ef	0.056739744
9	0xbd23bc9c	-0.039974794
10	0x3d7de16d	0.06198256
11	0x3b85dd80	0.0040852427
12	0xbd091473	-0.033466768
13	0x3cc4c7ae	0.024020996
14	0x3d206c33	0.039165687
15	0x3d90e865	0.07075576
16	0x3d579ca7	0.05263963
17	0xbd4e40dd	-0.050354827
18	0x3d1631a2	0.036668427
19	0x3c5c23c8	0.013436265
20	0xbc198173	-0.009369242
21	0x3d714af2	0.058909364
22	0x39a98100	0.00032330304
23	0x3d8dd3d4	0.06925169
24	0xbd0b1307	-0.033953693
25	0x3d8e97ac	0.06962523
26	0xbc436390	-0.011925593
27	0x3d4f5c9e	0.050625436
28	0x3d8fc332	0.070196524
29	0x3c1ccbfa	0.009570116
30	0xbd79ed8d	-0.06101756
31	0x3d830d90	0.06399071
32	0xbda4cb5d	-0.08046601
33	0x3d86f03b	0.06588789
34	0xbd0b56ea	-0.034018435
35	0x3d6699d5	0.05629905
36	0xbd8faa6b	-0.070149265
37	0xbd43a2ff	-0.047762867
38	0xbd6f79b7	-0.058465686
39	0x3d94dcb8	0.07268661
40	0x3d0604e2	0.0327195
41	0x3d4f2fac	0.050582573
42	0xbd4828ec	-0.04886715
43	0x3c0f9ea8	0.008765854
44	0xbd0c8207	-0.03430369
45	0xbd18fdcb	-0.03735141
46	0x3d75de9a	0.060026743
47	0x3bbd878c	0.0057839807
48	0xbd79a0d4	-0.060944393
49	0x3d2d97cc	0.042381093
50	0xba8733c0	-0.0010315105
51	0x3cd1262f	0.025530903
52	0xbd00af53	-0.031417202
53	0x3d4b328c	0.049608752
54	0xbd9e7bf0	-0.07738483
55	0xbd7fcecb	-0.062453073
56	0x3d95641c	0.07294485
57	0xbd425cb0	-0.047451675
58	0x3da2ca8e	0.079487905
59	0x3d9041f1	0.07043827
60	0xbd4159fe	-0.047204964
61	0x3d9a9baf	0.075492255
62	0x3d49194e	0.049096398
63	0xbd84e199	-0.06488342
64	0xbd917d5c	-0.071039885
65	0x3d1fbd4f	0.038998898
66	0xbd4159f7	-0.047204938
67	0xbd90ede8	-0.07076627
68	0x3b8b56ce	0.0042522913
69	0x3ca0eedc	0.019645147
70	0xbca96ece	-0.020682719
71	0x3bd295d0	0.0064265504
72	0xbd51fbc1	-0.05126548
73	0xbb0d44f4	-0.0021555992
74	0x3d7bcf39	0.06147692
75	0x3d154fda	0.036453106
76	0xbd248e5a	-0.04017482
77	0xbd0de962	-0.0346464
78	0x3d9e1f0d	0.07720766
79	0x3d0dc84b	0.034614842

weight_g f4 [80, 1, 1]
0	0x3f195b84	0.59905267
1	0x3f139fa8	0.5766549
2	0x3f1507c3	0.5821497
3	0x3f158008	0.58398485
4	0x3f15f6cb	0.585797
5	0x3f1ab9a3	0.6043951
6	0x3f180e74	0.59397054
7	0x3f126706	0.5718845
8	0x3f0d96cd	0.5530823
9	0x3f1a91ac	0.6037853
10	0x3f0d06bc	0.550884
11	0x3f1eecb9	0.6207996
12	0x3f12b38d	0.5730522
13	0x3f0ccdee	0.55001724
14	0x3f148e53	0.5802967
15	0x3f15aef9	0.5847011
16	0x3f1cb8ea	0.61219656
17	0x3f15218d	0.5825432
18	0x3f16a897	0.58851
19	0x3f11fb29	0.57023865
20	0x3f13b5af	0.576991
21	0x3f1699af	0.5882825
22	0x3f1b0e09	0.6056829
23	0x3f140589	0.57820946
24	0x3f153928	0.5829034
25	0x3f17a56e	0.592368
26	0x3f12b78b	0.57311314
27	0x3f0f65f5	0.5601495
28	0x3f138150	0.5761919
29	0x3f15c3b7	0.5850176
30	0x3f10e475	0.565986
31	0x3f1dee63	0.61691874
32	0x3f1899bb	0.59609574
33	0x3f0b1925	0.5433524
34	0x3f10b35d	0.56523687
35	0x3f1006c7	0.5626034
36	0x3f0fe937	0.5621523
37	0x3f14134e	0.57841957
38	0x3f10edc4	0.566128
39	0x3f19c8b0	0.6007185
40	0x3f0a21af	0.5395765
41	0x3f198214	0.5996411
42	0x3f18b3c0	0.59649277
43	0x3f16b9a4	0.58877015
44	0x3f13c900	0.57728577
45	0x3f0f8e74	0.5607674
46	0x3f1db5b7	0.616054
47	0x3f1391cb	0.5764434
48	0x3f101776	0.562858
49	0x3f1cae27	0.61203235
50	0x3f0e0250	0.5547228
51	0x3f0ef4c2	0.5584222
52	0x3f0e5109	0.555924
53	0x3f10c11b	0.56544656
54	0x3f11eece	0.5700501
55	0x3f15e731	0.58555895
56	0x3f1400e8	0.5781388
57	0x3f0f760c	0.560395
58	0x3f12a1d3	0.57278174
59	0x3f1cb84f	0.6121873
60	0x3f0b3ec4	0.5439265
61	0x3f1893c4	0.5960047
62	0x3f11403f	0.56738657
63	0x3f1198d6	0.56873834
64	0x3f13220d	0.5747383
65	0x3f0bed24	0.5465872
66	0x3f0c490d	0.54798967
67	0x3f10dd27	0.5658745
68	0x3f13c7eb	0.57726926
69	0x3f127179	0.57204396
70	0x3f168d53	0.58809394
71	0x3f147240	0.5798683
72	0x3f154ec7	0.5832333
73	0x3f14f1f6	0.58181703
74	0x3f0fcb66	0.56169736
75	0x3f18b552	0.5965167
76	0x3f0f9b1c	0.56096053
77	0x3f1704b2	0.5899154
78	0x3f122bc2	0.5709802
79	0x3f10479c	0.5635927

weight_v f4 [80, 80, 2]
0	0x3d46bdda	0.0485209
1	0x3d85aba4	0.065268785
2	0x3c5aada3	0.013347062
3	0x3d315322	0.043292172
4	0x3d425f3c	0.047454104
5	0xbd506b4d	-0.05088358
6	0x3d447b0e	0.047968917
7	0xbd74d942	-0.059777506
8	0xbca1ae96	-0.01973657
9	0xbc5ed6fd	-0.013601062
10	0x3d680eef	0.056654867
11	0x3d8d69dd	0.069049574
12	0xbd6af843	-0.057365667
13	0x3c27af02	0.010234596
14	0x3d5870d7	0.052841987
15	0xbd1a8b98	-0.037730783
16	0xbd6bc2aa	-0.057558693
17	0xbd647710	-0.05577761
18	0xbd1484ca	-0.03625945
19	0xbd193d7a	-0.037412144
20	0x3cb084a5	0.021547625
21	0x3d24e724	0.040259495
22	0xbd230cfb	-0.0398073
23	0x3d8cdcba	0.06878038
24	0xbd91cb26	-0.071188256
25	0x3d96c9c4	0.073627025
26	0xbd1d6684	-0.038427845
27	0xbc416a69	-0.011805155
28	0x3cea74e1	0.028620185
29	0x3d7cea06	0.06174662
30	0xbd80c534	-0.062876135
31	0x3d1a11a1	0.03761447
32	0xbc79d828	-0.01524929
33	0x3ab90ec4	0.001411878
34	0xbd62ac29	-0.055339966
35	0x3ce4a091	0.027908595
36	0xbd3faece	-0.046797566
37	0x3d159c0e	0.03652578
38	0x3ce2a9bd	0.027668828
39	0xbd353341	-0.044238333
40	0x3d93b693	0.07212558
41	0x3d3dc0f6	0.0463266
42	0x3d2668b0	0.04062718
43	0x3d89e38d	0.06732855
44	0x3c4dcaba	0.012560541
45	0xbc96b51f	-0.018396912
46	0xbd8e534e	-0.06949483
47	0xbc5f29b6	-0.0136207845
48	0x3c862cac	0.016378723
49	0x3cc46966	0.02397604
50	0x3d7a894a	0.061166085
51	0xbd46e0c7	-0.048554208
52	0xbbfc944f	-0.0077081094
53	0xbc9a02bc	-0.018800132
54	0x3cebb681	0.028773548
55	0xbcc2fdc6	-0.02380265
56	0x3d7a03c0	0.061038733
57	0xbc879931	-0.01655254
58	0x3c9578e6	0.018246125
59	0x3d2b0b36	0.04175874
60	0xbd04ea04	-0.032449737
61	0x3c5c3481	0.013440252
62	0xbc997c29	-0.018735962
63	0xbd545646	-0.05184009
64	0xbd3c9af4	-0.046046212
65	0x3d948ec3	0.07253792
66	0x3ca9e9ea	0.020741422
67	0xbd8ca251	-0.06866897
68	0xbcbff5d9	-0.023432659
69	0xbd0b0f68	-0.03395024
70	0x3d2a429d	0.041567434
71	0x3d89836a	0.06714518
72	0xbd8ce36c	-0.06879315
73	0x3d4f6a4e	0.05063849
74	0x3d971646	0.07377295
75	0xbd9c6726	-0.076368615
76	0xbce1002f	-0.027465908
77	0x3d8b7f61	0.06811405
78	0x3bb05bf1	0.005382054
79	0xbd5006af	-0.050787624
80	0xbda2ca63	-0.079487585
81	0xba39dd92	-0.00070902065
82	0x3d2269d4	0.039651707
83	0xbd98acd0	-0.07454836
84	0xbca82a15	-0.020527879
85	0x3c32d17e	0.010914205
86	0x3cdcef31	0.026969524
87	0xbd13b3af	-0.03606003
88	0x3da231e7	0.07919674
89	0xbd4c57b6	-0.049888335
90	0xbd64ab8f	-0.055827674
91	0x3ce7e063	0.028305238
92	0xbd7d2432	-0.061802097
93	0x3a07a628	0.00051746005
94	0x3da0711b	0.07834073
95	0x3d21491a	0.039376356
96	0x3d29b8d2	0.041436024
97	0xbd9022ac	-0.07037863
98	0xbd7f0b53	-0.06226666
99	0xbc0069ae	-0.007837696
100	0x3d737e54	0.059446648
101	0xbc9ab37b	-0.018884411
102	0xbcfab46b	-0.030603608
103	0xbd900792	-0.07032694
104	0x3d249327	0.040179398
105	0x3d5fa649	0.05460194
106	0xbd807575	-0.06272403
107	0x3d140d28	0.03614536
108	0xbcf56c47	-0.029958857
109	0x3c7c7923	0.015409741
110	0xbd48b984	-0.049005046
111	0xbd5b3c4f	-0.05352431
112	0x3d41bbe4	0.047298327
113	0xbd788eb5	-0.06068297
114	0xbd03e150	-0.032197297
115	0x3d8f5ae3	0.06999757
116	0xbd5d7758	-0.054068893
117	0x3d5b21d1	0.053499047
118	0xbb4d6e05	-0.0031346094
119	0xbd87f567	-0.06638604
120	0xbd9e9372	-0.07742967
121	0x3d99d58d	0.07511435
122	0x3d935ff0	0.07196033
123	0xbd90c392	-0.07068552
124	0x3bca14c8	0.006167028
125	0x3d1a652c	0.03769414
126	0xbd9b1799	-0.0757286
127	0xbc26363a	-0.010144765
128	0xbd6b926b	-0.057512682
129	0xbd1de3fe	-0.03854751
130	0x3d553d04	0.052060142
131	0xbcd81029	-0.026374893
132	0x3d228936	0.039681636
133	0xbd925031	-0.071442015
134	0xbd6c7159	-0.057725284
135	0xbd5210e6	-0.051285647
136	0x3d5db067	0.05412331
137	0xbb809888	-0.003924433
138	0x3d6c523b	0.05769561
139	0x3b4ad5e2	0.0030950238
140	0x3da4cf26	0.08047323
141	0x3c9c37ad	0.019069517
142	0xbd4298bf	-0.04750895
143	0xbd57166d	-0.05251162
144	0x3cb21453	0.021738207
145	0x3d481ba8	0.0488545
146	0xbc939db9	-0.018019544
147	0xbd6e6496	-0.058201395
148	0x3d9fd89c	0.07804987
149	0x3d56815c	0.05236946
150	0x3d984d7e	0.074366555
151	0xbce764ee	-0.02824637
152	0x3cad2d6a	0.02113982
153	0xbd812efb	-0.06307789
154	0xbd17d1f6	-0.03706547
155	0x3d987033	0.07443275
156	0x3d5c8b35	0.053843696
157	0xbd53df31	-0.051726524
158	0x3d0615b1	0.03273553
159	0xb9e0eaa0	-0.0004289942
160	0x3d8b5ebb	0.06805178
161	0xbb8eb750	-0.0043553486
162	0x3d0509a4	0.032479897
163	0xbd426814	-0.047462538
164	0xbd052302	-0.03250409
165	0x3d30a8ba	0.04312966
166	0x3c1f8dd8	0.009738408
167	0xbd5f5004	-0.05451967
168	0x3d973ee8	0.07385045
169	0xbcc771d9	-0.024346279
170	0x3d815845	0.06315664
171	0xbd9c6767	-0.0763691
172	0xbd629667	-0.055319216
173	0x3d32684f	0.043556508
174	0x3be76c3a	0.007062462
175	0x3d85bfc9	0.06530721
176	0xbcff811a	-0.03118949
177	0x3cb2f8ff	0.021847246
178	0xbd1a31e4	-0.037645236
179	0x3c5fe270	0.013664827
180	0x3c3fb098	0.011699818
181	0x3d996dd2	0.0749165
182	0xbc004fd8	-0.007831536
183	0xbc8293b1	-0.015939565
184	0xbd6fecb8	-0.058575362
185	0x3d309568	0.043111235
186	0x3d92b9a8	0.07164317
187	0xbd5f6816	-0.054542623
188	0xbd9bbc28	-0.07604247
189	0xbc292c99	-0.010325574
190	0x3d3cfc56	0.046139084
191	0xbbea5135	-0.007150794
192	0xbda32616	-0.07966249
193	0xbd03abc1	-0.03214622
194	0x3d3756a3	0.044760358
195	0x3ba2cd47	0.0049683186
196	0xbd7cedda	-0.06175027
197	0xbd2dcde8	-0.042432696
198	0x3c546911	0.012964503
199	0xbba5c30d	-0.0050586523
200	0x3ccaeb10	0.02477029
201	0xbcc0cb1d	-0.023534352
202	0x3b5cd340	0.003369525
203	0x3d30c536	0.043156825
204	0xbd3f2dfe	-0.04667472
205	0xbcf7449b	-0.03018408
206	0xbd77616c	-0.060395643
207	0x3b4e79d2	0.0031505716
208	0xbc855937	-0.016277893
209	0xbd9afb9a	-0.075675204
210	0x3d8ceb4b	0.06880816
211	0x3c1f3b8a	0.009718785
212	0x3d6463e0	0.05575931
213	0x3d509872	0.050926633
214	0x3d459b1e	0.048243634
215	0xbd556f6e	-0.05210822
216	0xbc2fd13b	-0.010731037
217	0xbd0e4444	-0.034733072
218	0x3d8184c6	0.06324153
219	0xbd8fac83	-0.07015326
220	0xbd8a08ac	-0.06739935
221	0xbd2165c6	-0.0394037
222	0xbd7204ae	-0.059086494
223	0x3d10923e	0.035295717
224	0xbd1f8795	-0.03894766
225	0x3d83dd7a	0.06438728
226	0xbd037219	-0.032091234
227	0xbc46ef2c	-0.012141984
228	0x3cb7d44b	0.022440096
229	0xbd941aa0	-0.07231641
230	0xbd981453	-0.074257515
231	0x3bbfc8fc	0.0058528166
232	0x3cceefc2	0.02526081
233	0xbd88ab7a	-0.066733316
234	0x3d281df6	0.041044198
235	0xbd9d3f0a	-0.07678039
236	0xbd3fcaee	-0.04682439
237	0x3d28f6d5	0.041251022
238	0x3d7060b1	0.058685962
239	0x3ccee2f6	0.025254708
240	0x3d8c9a2e	0.06865345
241	0x3c3782af	0.011200591
242	0xba938d46	-0.0011257313
243	0x3d7078b8	0.058708876
244	0xba250948	-0.00062956335
245	0x3d8f438a	0.06995304
246	0x3d9c9ff1	0.07647694
247	0xbd4c9a97	-0.049952116
248	0xbcb04c44	-0.021520741
249	0xbcdea9e0	-0.027180612
250	0x3ca15e9d	0.019698435
251	0x3b9c3ef8	0.0047682486
252	0x3d82cec5	0.063870944
253	0xbd389c89	-0.04507116
254	0x3d96bd0e	0.07360278
255	0x3c581426	0.0131883975

weight f4 [80, 80, 2]
0	0x3d41cdfb	0.04731558
1	0x3d825994	0.06364742
2	0x3c553efb	0.013015504
3	0x3d2ceb75	0.042216737
4	0x3d3d8b26	0.04627528
5	0xbd4b3de3	-0.049619567
6	0x3d3f998f	0.046777304
7	0xbd6ec42c	-0.058292553
8	0xbc9daa64	-0.019246288
9	0xbc594dde	-0.013263194
10	0x3d624b30	0.055247486
11	0x3d89e690	0.067334294
12	0xbd652200	-0.055940628
13	0x3c2384a5	0.009980355
14	0x3d531069	0.05152932
15	0xbd16b4c8	-0.0367935
16	0xbd65e760	-0.05612886
17	0xbd5eca2b	-0.05439202
18	0xbd10d44e	-0.03535872
19	0xbd156ef7	-0.036482777
20	0x3cac2219	0.021012353
21	0x3d20ce76	0.039259396
22	0xbd1f0014	-0.038818434
23	0x3d895cee	0.06707178
24	0xbd8e2bfe	-0.069419846
25	0x3d930ad9	0.071798034
26	0xbd197d8c	-0.037473246
27	0xbc3c9c68	-0.0115118995
28	0x3ce4a1e2	0.027909223
29	0x3d76a1a6	0.060212754
30	0xbd7b249c	-0.06131421
31	0x3d163dd9	0.036680076
32	0xbc73a34d	-0.014870477
33	0x3ab475ea	0.0013768051
34	0xbd5d0aaa	-0.05396525
35	0x3cdef2a4	0.02721531
36	0xbd3aebd2	-0.045635052
37	0x3d11e4a2	0.035618432
38	0x3cdd084e	0.026981499
39	0xbd30b2ef	-0.043139394
40	0x3d900b36	0.07033388
41	0x3d390a3f	0.045175787
42	0x3d22466e	0.03961795
43	0x3d8676aa	0.06565602
44	0x3c48ae05	0.012248521
45	0xbc92f6b7	-0.017939908
46	0xbd8aca34	-0.067768484
47	0xbc599e89	-0.013282427
48	0x3c82d768	0.015971854
49	0x3cbf8858	0.023380443
50	0x3d745009	0.05964664
51	0xbd41f00a	-0.04734806
52	0xbbf64e10	-0.00751663
53	0xbc962f53	-0.018333113
54	0x3ce5db84	0.028058775
55	0xbcbe25c0	-0.02321136
56	0x3d73cdd0	0.05952245
57	0xbc843adf	-0.016141353
58	0x3c91c259	0.017792867
59	0x3d26cb7b	0.040721398
60	0xbd019cc4	-0.031643644
61	0x3c56bc23	0.013106379
62	0xbc95ac17	-0.018270535
63	0xbd4f0ff1	-0.050552312
64	0xbd37eb8b	-0.044902366
65	0x3d90de07	0.07073598
66	0x3ca5b15e	0.020226177
67	0xbd8923f9	-0.06696314
68	0xbcbb311a	-0.022850562
69	0xbd079b12	-0.03310687
70	0x3d2607dd	0.040534843
71	0x3d8618ea	0.06547721
72	0xbd896376	-0.06708424
73	0x3d4a4346	0.049380563
74	0x3d935574	0.07194033
75	0xbd988486	-0.07447152
76	0xbcdb6952	-0.02678362
77	0x3d880843	0.06642201
78	0x3babfa68	0.0052483566
79	0xbd4adbc4	-0.04952599
80	0xbd9ebf24	-0.07751301
81	0xba353f95	-0.00069140765
82	0x3d1e60fb	0.038666707
83	0xbd94e1e5	-0.072696485
84	0xbca3fca9	-0.020017939
85	0x3c2e6052	0.010643082
86	0x3cd77230	0.026299566
87	0xbd100864	-0.035164252
88	0x3d9e2a72	0.077229396
89	0xbd474438	-0.048649043
90	0xbd5efd5c	-0.05444084
91	0x3ce21dcc	0.027602099
92	0xbd76da60	-0.060266852
93	0x3a044783	0.00050460565
94	0x3d9c74cc	0.07639465
95	0x3d1d476d	0.038398195
96	0x3d25817f	0.0404067
97	0xbd8c8e10	-0.06863034
98	0xbd78b567	-0.060719874
99	0xbbfa721c	-0.0076429974
100	0x3d6d71dd	0.057969917
101	0xbc96dbae	-0.018415298
102	0xbcf47a18	-0.029843375
103	0xbd8c73a2	-0.06857993
104	0x3d207c8f	0.03918129
105	0x3d5a1804	0.05324556
106	0xbd7a8914	-0.061165884
107	0x3d105fa4	0.03524746
108	0xbcef538a	-0.02921464
109	0x3c763391	0.015026943
110	0xbd43bd08	-0.047787696
111	0xbd55ca1b	-0.052194696
112	0x3d3cebdd	0.046123374
113	0xbd726209	-0.059175525
114	0xbd009aa3	-0.031397473
115	0x3d8bcb3d	0.06825874
116	0xbd57f6f5	-0.05272575
117	0x3d55b046	0.05217006
118	0xbb48539d	-0.0030567416
119	0xbd8494ca	-0.06473692
120	0xbd9aa300	-0.07550621
121	0x3d960343	0.07324841
122	0x3d8fb6ba	0.07017274
123	0xbd8d2af6	-0.0689296
124	0x3bc50fac	0.006013831
125	0x3d168f51	0.03675777
126	0xbd973d4f	-0.073847406
127	0xbc221539	-0.009892755
128	0xbd65b854	-0.056083992
129	0xbd19f7e8	-0.037589937
130	0x3d4ff0f4	0.0507669
131	0xbcd2b222	-0.025719706
132	0x3d1e7f95	0.03869589
133	0xbd8eadbb	-0.0696673
134	0xbd6691b8	-0.056291312
135	0xbd4cd903	-0.050011646
136	0x3d582e99	0.052778814
137	0xbb7acd7c	-0.003826945
138	0x3d667360	0.056262374
139	0x3b45cbfa	0.0030181394
140	0x3da0b711	0.07847417
141	0x3c98563b	0.018595805
142	0xbd3dc33c	-0.046328768
143	0xbd51be9a	-0.051207162
144	0x3cada7da	0.021198202
145	0x3d432318	0.04764089
146	0xbc8ff2fa	-0.017571915
147	0xbd68788e	-0.056755595
148	0x3d9be016	0.076111004
149	0x3d512d3d	0.051068533
150	0x3d9484f1	0.07251919
151	0xbce1a568	-0.027544692
152	0x3ca8e01d	0.020614678
153	0xbd7bf2e8	-0.06151095
154	0xbd140c7b	-0.036144715
155	0x3d94a6c9	0.07258374
156	0x3d5710b0	0.05250615
157	0xbd4e9bd2	-0.05044157
158	0x3d02c0ff	0.031922337
159	0xb9db544c	-0.0004183374
160	0x3d87f17f	0.066378586
161	0xbb8b3504	-0.0042482633
162	0x3d01c443	0.03168131
163	0xbd3da06d	-0.046295572
164	0xbd01dd01	-0.031704906
165	0x3d2c50c8	0.042069227
166	0x3c1ba190	0.009498969
167	0xbd59d26c	-0.05317919
168	0x3d9386ec	0.07203469
169	0xbcc28a7c	-0.023747675
170	0x3d7c5445	0.061603803
171	0xbd988ef3	-0.074491404
172	0xbd5d0432	-0.05395908
173	0x3d2e055c	0.04248558
174	0x3be1bb95	0.0068888166
175	0x3d8275ee	0.063701496
176	0xbcf938e2	-0.030422632
177	0x3cae927d	0.021310085
178	0xbd166758	-0.03671965
179	0x3c5a613e	0.013328848
180	0x3c3afa0b	0.011412154
181	0x3d95a818	0.07307452
182	0xbbfa506c	-0.0076389816
183	0xbc7ebb9a	-0.015547657
184	0xbd6a0690	-0.057135165
185	0x3d2c3df0	0.042051256
186	0x3d8f1e20	0.06988168
187	0xbd59e9e6	-0.05320158
188	0xbd97e7ea	-0.07417281
189	0xbc2503c4	-0.010071699
190	0x3d3856ce	0.04500466
191	0xbbe48e58	-0.0069749765
192	0xbd9f232e	-0.07770382
193	0xbd006efa	-0.031355835
194	0x3d32d4a6	0.04365983
195	0x3b9ecc8e	0.004846162
196	0xbd76b5d7	-0.06023201
197	0xbd2987ee	-0.0413894
198	0x3c4f3018	0.012645744
199	0xbba1afb2	-0.0049342746
200	0x3cc5edd6	0.02416126
201	0xbcbc0d9d	-0.02295571
202	0x3b576550	0.0032866783
203	0x3d2c6c91	0.042095724
204	0xbd3a7aa7	-0.045527127
205	0xbcf1303a	-0.029441942
206	0xbd714c56	-0.05891069
207	0x3b496633	0.0030731081
208	0xbc8211e1	-0.015877666
209	0xbd972c18	-0.07381457
210	0x3d89744e	0.067116365
211	0x3c1b5148	0.009479828
212	0x3d5ec652	0.05438835
213	0x3d4b777c	0.049674496
214	0x3d40bf54	0.047057465
215	0xbd503001	-0.05082703
216	0xbc2b7e96	-0.010467192
217	0xbd0ac4cc	-0.033879086
218	0x3d7cab17	0.0616866
219	0xbd8c2430	-0.0684284
220	0xbd86a3d9	-0.0657422
221	0xbd1d6de4	-0.038434878
222	0xbd6c1158	-0.057633728
223	0x3d0d0445	0.0344279
224	0xbd1b9b75	-0.037990052
225	0x3d809f7a	0.06280418
226	0xbd0036bd	-0.031302202
227	0xbc420b05	-0.011843448
228	0x3cb34f38	0.02188836
229	0xbd90766a	-0.07053836
230	0xbd945717	-0.072431736
231	0x3bbb11d5	0.005708913
232	0x3cc9d93d	0.02463972
233	0xbd854f3c	-0.065092534
234	0x3d23fbc8	0.04003504
235	0xbd996149	-0.07489259
236	0xbd3b13bb	-0.045673113
237	0x3d24cf52	0.04023678
238	0x3d6a77af	0.057243045
239	0x3cc9ccc1	0.024633767
240	0x3d892530	0.06696546
241	0x3c32ff9d	0.010925201
242	0xba8fec8a	-0.0010980528
243	0x3d6a8f1f	0.057265397
244	0xba20fa7f	-0.00061408425
245	0x3d8bbdcb	0.068233095
246	0x3d98c619	0.07459659
247	0xbd4792c1	-0.04872394
248	0xbcabf698	-0.020991609
249	0xbcd9305d	-0.02651232
250	0x3c9d66e8	0.019214109
251	0x3b986783	0.0046510114
252	0x3d7f2edb	0.062300544
253	0xbd341289	-0.04396299
254	0x3d930843	0.0717931
255	0x3c52c416	0.012864133

bias f4 [80]
0	0x3c84871c	0.016177706
1	0x3cc3938e	0.02387407
2	0xbcbda693	-0.023150718
3	0xbd8feb03	-0.07027247
4	0xbca966e6	-0.020678949
5	0xbd0da319	-0.03457937
6	0x3cb46b8b	0.022023937
7	0xbcfb75f8	-0.0306959
8	0xbd21582f	-0.03939074
9	0x3d3895a3	0.04506458
10	0xbd2e5fd0	-0.042571843
11	0xbd3f3536	-0.046681605
12	0x3ca9a55b	0.02070873
13	0xbd08c618	-0.033392042
14	0xbd73feaa	-0.05956904
15	0xbbdd0d30	-0.006745957
16	0xbd10820e	-0.03528028
17	0xbd9ae8dd	-0.075639464
18	0x3d073b02	0.03301526
19	0x3d75ef5a	0.060042717
20	0xbc8e99c6	-0.01740731
21	0x3cfaf8a3	0.030636137
22	0x3d137360	0.035998702
23	0x3cdeb558	0.02718608
24	0x3ca669c0	0.020314097
25	0x3d95c86e	0.073136196
26	0x3c33e132	0.010978984
27	0x3b1cd054	0.0023927884
28	0x3d23dac2	0.040003546
29	0x3d007731	0.03136367
30	0x3cb0d12c	0.021584116
31	0x3d859147	0.0652185
32	0x3d88b532	0.06675185
33	0x3d56c40f	0.05243307
34	0xbc9cb099	-0.019127177
35	0x3d6aafa7	0.05729642
36	0x3d2af815	0.041740496
37	0x38bb1160	8.920091e-05
38	0xbd3b56c9	-0.04573706
39	0x3d625789	0.05525926
40	0x3d35cb81	0.04438353
41	0x3b6a3253	0.0035735562
42	0xbd8bcf25	-0.06826619
43	0xbc407e52	-0.011748867
44	0x3d726533	0.059178542
45	0x3d5c5580	0.053792477
46	0x3d847cf9	0.06469149
47	0xbcf7b76c	-0.03023883
48	0x3b132a90	0.002245579
49	0x3d976c06	0.07393651
50	0xbd245c46	-0.04012706
51	0xbd93b6a0	-0.07212567
52	0xbc9f03c4	-0.019410975
53	0xbd7f9e50	-0.062406838
54	0xbd943e24	-0.07238415
55	0x3cd03d57	0.025419874
56	0xbcadfcfd	-0.021238798
57	0xbcec6659	-0.028857397
58	0x3c153164	0.009106014
59	0x3ba4cd16	0.005029331
60	0xbc9f396e	-0.019436564
61	0xbd1a6573	-0.037694406
62	0x3d97b242	0.07407047
63	0x3a6b0f5c	0.00089668273
64	0x3b69e68a	0.003569039
65	0xbd7b4d8e	-0.06135326
66	0xbc2ded7a	-0.010615701
67	0xbd90a74f	-0.070631616
68	0xbce2cefc	-0.027686588
69	0xbd347282	-0.044054516
70	0x3d837215	0.06418244
71	0x3d81d579	0.06339545
72	0x3c84f6f2	0.016231034
73	0x3c7ccd94	0.015429873
74	0xbbbf8ea2	-0.0058458606
75	0x3d0e3038	0.034713954
76	0x3d9854ac	0.07438025
77	0x3c8232f7	0.015893443
78	0x3d8f7a3e	0.07005738
79	0x3d0e73b0	0.034778297

weight_g f4 [80, 1, 1]
0	0x3f1054dd	0.5637949
1	0x3f112252	0.56692994
2	0x3f15bceb	0.5849139
3	0x3f15e659	0.5855461
4	0x3f11e737	0.5699343
5	0x3f0ca9a5	0.54946357
6	0x3f10d3e3	0.56573313
7	0x3f153985	0.5829089
8	0x3f0ffd27	0.56245655
9	0x3f18c7b7	0.5967974
10	0x3f0f3a8c	0.5594871
11	0x3f10f809	0.5662847
12	0x3f1a584f	0.60291
13	0x3f1307e5	0.5743392
14	0x3f0a91a2	0.5412847
15	0x3f12e669	0.5738283
16	0x3f138b63	0.5763456
17	0x3f10c457	0.5654959
18	0x3f1651db	0.5871865
19	0x3f12fc1e	0.5741595
20	0x3f1427b0	0.5787306
21	0x3f0e963e	0.55698
22	0x3f118925	0.5684989
23	0x3f161380	0.58623505
24	0x3f16c5cc	0.58895564
25	0x3f16395b	0.5868127
26	0x3f0f6a0d	0.56021196
27	0x3f0fd875	0.5618966
28	0x3f114bc8	0.5675626
29	0x3f13788a	0.57605803
30	0x3f1263a4	0.5718329
31	0x3f1c27d2	0.6099826
32	0x3f0f3004	0.5593264
33	0x3f0fe81f	0.56213564
34	0x3f1cb3b0	0.6121168
35	0x3f041872	0.515998
36	0x3f11d20d	0.5696114
37	0x3f16841e	0.58795345
38	0x3f1de9ad	0.61684686
39	0x3f0eed46	0.558308
40	0x3f0c880b	0.54895085
41	0x3f0ebbf8	0.5575557
42	0x3f0e3f1f	0.55565065
43	0x3f1a375c	0.6024072
44	0x3f0dd342	0.5540048
45	0x3f1a014d	0.60158235
46	0x3f183adc	0.5946481
47	0x3f1d440b	0.6143195
48	0x3f152b4c	0.5826919
49	0x3f1a04dd	0.6016367
50	0x3f02041c	0.5078752
51	0x3f135f60	0.57567406
52	0x3f189a07	0.5961003
53	0x3f15679c	0.5836122
54	0x3f112238	0.5669284
55	0x3f165581	0.5872422
56	0x3f0c4024	0.5478537
57	0x3f0f58c8	0.55994844
58	0x3f16de2b	0.5893275
59	0x3f207fff	0.62695307
60	0x3f109172	0.5647193
61	0x3f1b3b40	0.60637283
62	0x3f1bef6f	0.6091222
63	0x3f136369	0.5757356
64	0x3f129639	0.5726047
65	0x3f18acae	0.5963849
66	0x3f1bd37d	0.6086958
67	0x3f11f0f5	0.57008296
68	0x3f0d7352	0.5525409
69	0x3f16cae5	0.5890334
70	0x3f0fc918	0.5616622
71	0x3f09f17d	0.53884107
72	0x3f0d9471	0.5530463
73	0x3f11c78a	0.569451
74	0x3f1aa3ed	0.6040638
75	0x3f09f49a	0.5388886
76	0x3f132169	0.57472855
77	0x3f16fd7f	0.58980554
78	0x3f0da2ae	0.55326355
79	0x3f0b42e9	0.5439897

weight_v f4 [80, 80, 2]
0	0x3cf5e3fb	0.030015936
1	0x3ca6d611	0.020365747
2	0xbc441da5	-0.011969958
3	0xbcdbbe7f	-0.026824234
4	0x3d301f9d	0.0429989
5	0xbda5c4ef	-0.08094203
6	0xbd96c933	-0.073625945
7	0xbd769fb1	-0.060210887
8	0xbbeb007c	-0.0071716886
9	0x3d6e5bee	0.05819314
10	0xbd5969e4	-0.0530795
11	0x3d24ef40	0.04026723
12	0xbcc96402	-0.02458382
13	0xbc73c3a9	-0.014878192
14	0x3a440e7b	0.00074789644
15	0x3c9b8b04	0.018987186
16	0xbd6205fc	-0.05518149
17	0xbc465c88	-0.012107022
18	0xbd816676	-0.06318371
19	0xbc83fbd5	-0.016111294
20	0x3ced44fe	0.028963562
21	0x3b92ca3c	0.0044796746
22	0x3d22fde8	0.039792925
23	0x3d496886	0.049171947
24	0x3bf616b5	0.007510031
25	0xbcd43520	-0.025904238
26	0x3cb83438	0.022485837
27	0x3c2915ec	0.010320168
28	0x3be9af8f	0.007131524
29	0x3d88b1c4	0.06674531
30	0x3d1f4ce0	0.038891673
31	0xbd2c9083	-0.042130005
32	0x3bdce578	0.006741222
33	0x3d0afd16	0.033932768
34	0xbd836939	-0.06416554
35	0x3c709e31	0.014686153
36	0xbd8371cd	-0.0641819
37	0x3cee28d4	0.029072203
38	0x3c63be26	0.013900315
39	0xbb546573	-0.0032409101
40	0xbbe39ab7	-0.0069459337
41	0x3d8ee6fd	0.06977651
42	0xbd7f31e0	-0.062303424
43	0x3c516f67	0.012782908
44	0xbb8b83b2	-0.0042576427
45	0xbcb1f8cd	-0.021725083
46	0xbc33f93e	-0.010984717
47	0x3c5b7788	0.013395198
48	0xbcfe4669	-0.031039434
49	0x3bb624ac	0.005558571
50	0xbd8edd54	-0.06975809
51	0xbb7a1f6f	-0.0038165709
52	0xbd5c6566	-0.05380764
53	0xbcd5df59	-0.026107477
54	0xbd4ebc27	-0.050472405
55	0x3da16836	0.07881205
56	0xbd9697b8	-0.07353157
57	0xbcae9578	-0.021311507
58	0xbd7f3555	-0.06230672
59	0x3d9bc062	0.076050535
60	0x3d8ca042	0.06866504
61	0x3d5f3d2c	0.054501697
62	0xbb383d3f	-0.0028112677
63	0x3d654aee	0.05597966
64	0x3d3ec8a2	0.046578057
65	0x3d86c4ca	0.06580503
66	0x3d103441	0.035206083
67	0xbd5c67dd	-0.05380999
68	0xbd48e96e	-0.04905074
69	0xbabc4ad8	-0.0014365567
70	0x3d4c197f	0.049829002
71	0xbd3e33d7	-0.046436157
72	0xbd9f62cf	-0.07782518
73	0xbcf13440	-0.02944386
74	0x3d9d3b0d	0.07677279
75	0x3c02ae59	0.007976138
76	0x3d396b69	0.04526845
77	0xbc3e4f98	-0.011615656
78	0x3da49d46	0.0803781
79	0x3ca3d6f3	0.019999957
80	0xbd550277	-0.052004304
81	0x3d8d68a1	0.06904722
82	0x3d9ede83	0.077572845
83	0x3c1245f9	0.008927816
84	0xbcd55540	-0.026041627
85	0x3d30db82	0.04317809
86	0xbbd0c6a4	-0.006371336
87	0xbd043289	-0.032274757
88	0x3d780358	0.060550064
89	0xbd038864	-0.032112494
90	0x3b2a5b58	0.0025994387
91	0x3c011ef9	0.00788092
92	0x3da2f572	0.07956971
93	0x3d0ad150	0.033891022
94	0x3ca4d453	0.020120775
95	0xbc7864b1	-0.015160725
96	0xbcfd0193	-0.03088454
97	0x3d8524d6	0.065011665
98	0x3cb8ef29	0.022574978
99	0x3d5a982f	0.05336779
100	0xbd22fc97	-0.03979167
101	0xbd55afbf	-0.052169558
102	0xbbe60711	-0.0070198854
103	0xbd6d89da	-0.057992794
104	0x3d9121ad	0.07086501
105	0xbc0102b5	-0.007874181
106	0xbc91dce1	-0.017805519
107	0xbd435a7e	-0.047693722
108	0xbd5801cb	-0.052736085
109	0x3d976f46	0.073942706
110	0xbda19ff2	-0.07891835
111	0x3cda6fc8	0.02666463
112	0x3d065357	0.032794323
113	0xbd68e5d0	-0.05685979
114	0x3d39723f	0.04527497
115	0x3d1e1674	0.03859563
116	0x3d34a4f5	0.044102628
117	0xbd07ccfd	-0.033154476
118	0x3d530d26	0.05152621
119	0x3d94a297	0.07257574
120	0xbd1cf915	-0.03832348
121	0xbd8b24fa	-0.06794162
122	0x3d42ebd0	0.04758817
123	0xbd984038	-0.07434124
124	0xbd1bf0c3	-0.038071405
125	0xbd8a44bf	-0.067513935
126	0xbd86b221	-0.06576944
127	0x3d61e98e	0.055154376
128	0x3d3ed3bd	0.046588648
129	0xbd5984c5	-0.053105135
130	0x3c2ee3c9	0.010674425
131	0xbcf6b5fa	-0.03011607
132	0x3d3095b3	0.043111514
133	0x3bdd5f60	0.0067557544
134	0xbd44afeb	-0.04801933
135	0xbd4e8467	-0.050419237
136	0x3d8ef0a7	0.069794945
137	0xbc4168de	-0.011804787
138	0x3d561beb	0.05227272
139	0xbda5725e	-0.080784544
140	0xbd101728	-0.035178334
141	0x3adb439e	0.0016728526
142	0x3d9c5c17	0.07634752
143	0xbcc7eb7e	-0.024404284
144	0x3ce78e8c	0.028266214
145	0x3d456058	0.048187584
146	0xbd4f8f08	-0.050673515
147	0xbb92a0cb	-0.0044747344
148	0x3d95d1ef	0.07315432
149	0x3c35f6df	0.011106222
150	0x3d3cbbea	0.046077646
151	0xbb6b2dfe	-0.0035885568
152	0x3d3a113b	0.04542659
153	0x3c9411a0	0.01807481
154	0x3c512a8c	0.012766492
155	0x3d0f69cd	0.03501301
156	0x3c3f780e	0.011686338
157	0x3d6b4f18	0.057448477
158	0xbd9650a0	-0.07339597
159	0xbd23e747	-0.040015485
160	0x3d215c6a	0.039394774
161	0x3d3c45e6	0.045965098
162	0xbd96e436	-0.073677465
163	0x3d98e3f4	0.074653536
164	0x3c39b718	0.011335157
165	0x3d9086f9	0.07056994
166	0xbce7fd52	-0.028319035
167	0x3bdf7bcb	0.006820177
168	0x3d8c87e1	0.06861854
169	0xbbd9d194	-0.006647298
170	0x3d43619b	0.047700506
171	0x3d8cf95e	0.068835005
172	0xbd1fae5d	-0.038984645
173	0xbc0e4275	-0.008682837
174	0xbd1548fe	-0.036446564
175	0xbb7739a2	-0.003772356
176	0x3d200019	0.039062593
177	0x3d74c362	0.059756644
178	0x3d8701e5	0.06592158
179	0xbc300654	-0.010743696
180	0xbd26d628	-0.04073158
181	0xbcb48c96	-0.022039693
182	0xbd10068e	-0.0351625
183	0xbd8490df	-0.064729445
184	0xbca39601	-0.019968988
185	0xbd5f7abd	-0.05456041
186	0x3d29b572	0.041432805
187	0xbda3ca48	-0.079975665
188	0x3d9214e3	0.0713289
189	0x3cc5a0a3	0.02412445
190	0xbd881268	-0.06644136
191	0x3d894eb2	0.06704463
192	0xbda21d0d	-0.07915697
193	0xbd1aee10	-0.03782469
194	0x3ce14bf0	0.02750203
195	0xbcb93b84	-0.022611387
196	0xbd822943	-0.06355526
197	0xbcd31800	-0.02576828
198	0x3d9d40c3	0.07678368
199	0x3ce5c16f	0.028046338
200	0x3c93e975	0.018055657
201	0xbcead64a	-0.028666634
202	0xbc5a9cff	-0.013343095
203	0xb9cced88	-0.00039086887
204	0xbc5e3bf8	-0.013564102
205	0x3d999ff5	0.075012125
206	0xbd563fd0	-0.05230695
207	0xbd83de8c	-0.06438932
208	0xbd9bf7b8	-0.07615608
209	0x3d135e1c	0.03597842
210	0x3c603584	0.013684634
211	0xbd975338	-0.073889196
212	0x3d885d89	0.066584654
213	0xbd027179	-0.031846497
214	0x3d335244	0.043779626
215	0xbd8f3c91	-0.06993974
216	0xbd3932f5	-0.045214612
217	0x3d15c78f	0.036567267
218	0x3c8a4504	0.016878612
219	0x3d1cbc46	0.03826549
220	0x3d9306d4	0.07179037
221	0x3c38d948	0.011282273
222	0x3d52d8f8	0.05147645
223	0x3a9a2e4c	0.0011763065
224	0xbd298239	-0.041383956
225	0xbd881904	-0.06645396
226	0xbb8ba168	-0.0042611845
227	0x3b05920a	0.0020381236
228	0x3ce02d07	0.02736522
229	0x3cca270f	0.024676828
230	0x3da23b47	0.079214625
231	0x3d845d01	0.064630516
232	0x3da587b2	0.080825225
233	0xbba0b0a8	-0.0049038716
234	0xbb933cb8	-0.004493322
235	0x3d606535	0.05478402
236	0xbd1eb6fa	-0.03874872
237	0xbc36f660	-0.011167139
238	0x3c32de47	0.010917253
239	0xbccc727c	-0.024956934
240	0xbd448ac3	-0.047983896
241	0xbd1f54bd	-0.038899172
242	0xbda3b297	-0.07993048
243	0xbc1a45ce	-0.009416057
244	0xbbaed895	-0.005335877
245	0x3d2b1759	0.041770313
246	0x3c052277	0.008125893
247	0xbd32d57a	-0.04366062
248	0x3d0986a1	0.033575658
249	0x3c974abb	0.018468251
250	0x3d1292f5	0.03578468
251	0x3d1c2411	0.038120333
252	0xbd5002c7	-0.0507839
253	0x3d7ea2a4	0.062166825
254	0x3d4d9af5	0.050196607
255	0xbd8e388a	-0.06944378

weight f4 [80, 80, 2]
0	0x3cf0840d	0.029359842
1	0x3ca33080	0.019920588
2	0xbc3fd43d	-0.011708316
3	0xbcd6f0e0	-0.026237905
4	0x3d2c4614	0.04205902
5	0xbda22557	-0.07917278
6	0xbd937d72	-0.07201661
7	0xbd713ba8	-0.058894783
8	0xbbe5dd7c	-0.0070149284
9	0x3d692625	0.056921143
10	0xbd54a94f	-0.051919278
11	0x3d215453	0.03938706
12	0xbcc4fd16	-0.024046462
13	0xbc6e6fa1	-0.014552982
14	0x3a3fc568	0.00073154876
15	0x3c9824a5	0.018572161
16	0xbd5d153a	-0.05397532
17	0xbc42068f	-0.011842384
18	0xbd7d24c0	-0.061802626
19	0xbc81194a	-0.01575913
20	0x3ce8154d	0.02833047
21	0x3b8f94d7	0.0043817568
22	0x3d1f6dda	0.038923122
23	0x3d450181	0.048097137
24	0x3bf0b5ab	0.0073458753
25	0xbccf91ad	-0.025338018
26	0x3cb42d78	0.021994337
27	0x3c2563c5	0.010094588
28	0x3be493ec	0.0069756415
29	0x3d85b4dd	0.065286376
30	0x3d1bd17a	0.03804157
31	0xbd28cae4	-0.041209117
32	0x3bd81166	0.006593871
33	0x3d07f359	0.03319106
34	0xbd8089e3	-0.062763
35	0x3c6b5bc4	0.01436514
36	0xbd809247	-0.062779
37	0x3ce8f429	0.028436737
38	0x3c5ec3c4	0.013596479
39	0xbb4fc0f1	-0.0031700695
40	0xbbdea11c	-0.006794108
41	0x3d8bc759	0.06825132
42	0xbd799de1	-0.06094158
43	0x3c4cdb77	0.012503496
44	0xbb887704	-0.0041645784
45	0xbcae14ec	-0.02125021
46	0xbc300a2a	-0.010744611
47	0x3c56ab76	0.013102403
48	0xbcf8b790	-0.030360967
49	0x3bb22974	0.0054370705
50	0xbd8bbde7	-0.068233304
51	0xbb74a7d2	-0.0037331474
52	0xbd579421	-0.0526315
53	0xbcd13295	-0.025536815
54	0xbd4a3753	-0.049369168
55	0x3d9de106	0.077089354
56	0xbd934d0c	-0.0719243
57	0xbcaac48d	-0.020845676
58	0xbd79a143	-0.060944807
59	0x3d9858d8	0.074388206
60	0x3d898d5b	0.067164145
61	0x3d5a5bfe	0.053310387
62	0xbb34364c	-0.0027498184
63	0x3d6047e0	0.054756045
64	0x3d3a9d10	0.045559943
65	0x3d83d2aa	0.06436665
66	0x3d0d0d55	0.034436543
67	0xbd57968a	-0.0526338
68	0xbd448530	-0.04797858
69	0xbab82d37	-0.0014051561
70	0x3d47a36a	0.04873983
71	0xbd3a0b86	-0.045421146
72	0xbd9be6ef	-0.076124065
73	0xbcebee8b	-0.02880027
74	0x3d99cb3c	0.07509467
75	0x3bffa631	0.007801794
76	0x3d355ddb	0.04427896
77	0xbc3a26ac	-0.011361759
78	0x3da10424	0.07862118
79	0x3ca04227	0.019562794
80	0xbd505a87	-0.050867584
81	0x3d8a5159	0.06753797
82	0x3d9b6587	0.07587724
83	0x3c0f1378	0.008732669
84	0xbcd0ab80	-0.025472403
85	0x3d2cfdde	0.042234294
86	0xbbcc3664	-0.00623207
87	0xbd014ecc	-0.031569287
88	0x3d729789	0.059226546
89	0xbd00a85f	-0.03141057
90	0x3b26a214	0.0025426196
91	0x3bfc98e6	0.0077086566
92	0x3d9f6594	0.07783046
93	0x3d07c888	0.033150226
94	0x3ca139fd	0.019680971
95	0xbc72f6c2	-0.014829339
96	0xbcf779d4	-0.03020946
97	0x3d823bcd	0.06359062
98	0x3cb4e453	0.02208153
99	0x3d55d0fe	0.052201264
100	0xbd1f6c91	-0.038921896
101	0xbd510405	-0.051029224
102	0xbbe0ffe6	-0.006866443
103	0xbd6858a8	-0.056725174
104	0x3d8df590	0.06931603
105	0xbbfc619b	-0.007702065
106	0xbc8eacad	-0.017416323
107	0xbd3f155a	-0.04665122
108	0xbd534915	-0.05158337
109	0x3d941fe4	0.07232645
110	0xbd9e178a	-0.077193335
111	0x3cd5a97a	0.02608179
112	0x3d0363b2	0.0320775
113	0xbd63ce96	-0.055616938
114	0x3d35648b	0.04428534
115	0x3d1aa1d7	0.037752
116	0x3d30b220	0.043138623
117	0xbd04d516	-0.032429777
118	0x3d4e702b	0.05039994
119	0x3d9162df	0.07098936
120	0xbd198ab5	-0.037485797
121	0xbd881a5e	-0.06645654
122	0x3d3ea917	0.046547975
123	0xbd94ec45	-0.07271627
124	0xbd18882a	-0.03723923
125	0xbd873f09	-0.0660382
126	0xbd83c069	-0.06433184
127	0x3d5cf96b	0.0539488
128	0x3d3aa7ed	0.045570303
129	0xbd54c39a	-0.051944353
130	0x3c2b1127	0.010441101
131	0xbcf15175	-0.029457787
132	0x3d2cb995	0.042169172
133	0x3bd888a4	0.0066080857
134	0xbd406351	-0.046969716
135	0xbd4a00cb	-0.049317162
136	0x3d8bd0cd	0.06826935
137	0xbc3d2e9b	-0.011546756
138	0x3d516dd4	0.05113013
139	0xbda1d494	-0.07901874
140	0xbd0cf0de	-0.034409396
141	0x3ad678ae	0.001636287
142	0x3d98f126	0.074678704
143	0xbcc38ccd	-0.02387085
144	0x3ce27ed3	0.027648365
145	0x3d410fe2	0.047134288
146	0xbd4b0598	-0.04956588
147	0xbb8f6c4e	-0.0043769246
148	0x3d928b96	0.0715553
149	0x3c31fca7	0.01086346
150	0x3d389bd0	0.04507047
151	0xbb6609ff	-0.0035101173
152	0x3d36000e	0.044433646
153	0x3c90d513	0.017679727
154	0x3c4c981d	0.0124874385
155	0x3d0c474d	0.034247685
156	0x3c3b48a7	0.011430896
157	0x3d662a60	0.056192756
158	0xbd930782	-0.071791664
159	0xbd20521f	-0.039140817
160	0x3d1e0785	0.03858139
161	0x3d3862c2	0.045016058
162	0xbd93c6a8	-0.07215625
163	0x3d95bbd5	0.07311217
164	0x3c35e179	0.01110112
165	0x3d8d8b0e	0.06911288
166	0xbce3331c	-0.027734332
167	0x3bdade8b	0.006679361
168	0x3d89a116	0.06720178
169	0xbbd55245	-0.0065100514
170	0x3d3f58e4	0.046715632
171	0x3d8a103b	0.06741377
172	0xbd1c6259	-0.03817973
173	0xbc0b5287	-0.008503563
174	0xbd1233ed	-0.03569405
175	0xbb721ee4	-0.0036944682
176	0x3d1cb265	0.038256068
177	0x3d6fb5a8	0.05852285
178	0x3d84384c	0.0645605
179	0xbc2c63ed	-0.010521871
180	0xbd236452	-0.039890595
181	0xbcb0d245	-0.02158464
182	0xbd0d0d4a	-0.0344365
183	0xbd81d42d	-0.063392974
184	0xbca03559	-0.019556688
185	0xbd5add82	-0.053433903
186	0x3d26346d	0.04057734
187	0xbda0688c	-0.07832441
188	0x3d8f10c1	0.069856174
189	0x3cc18c0d	0.023626352
190	0xbd85432e	-0.06506954
191	0x3d8678f0	0.06566036
192	0xbd9ec42e	-0.07752262
193	0xbd17bb29	-0.037043724
194	0x3cdca51a	0.026934195
195	0xbcb56872	-0.02214453
196	0xbd7ef28e	-0.062243037
197	0xbccebc3d	-0.025236243
198	0x3d9a0195	0.07519833
199	0x3ce10308	0.027467266
200	0x3c90dba6	0.017682862
201	0xbce5fd07	-0.028074754
202	0xbc56197d	-0.0130676
203	0xb9c8b25c	-0.0003827986
204	0xbc59a552	-0.013284044
205	0x3d9673f4	0.07346335
206	0xbd51d35f	-0.05122697
207	0xbd812589	-0.063059874
208	0xbd98bf55	-0.07458369
209	0x3d10532e	0.035235576
210	0x3c5b946e	0.013402088
211	0xbd94335f	-0.07236361
212	0x3d858cc2	0.06520988
213	0xbcff7fff	-0.031188963
214	0x3d2f9e70	0.042875707
215	0xbd8c4779	-0.0684957
216	0xbd356010	-0.044281065
217	0x3d12afe1	0.035812262
218	0x3c876a2c	0.016530119
219	0x3d197fd4	0.037475422
220	0x3d8ffdb3	0.07030811
221	0x3c35083d	0.011049327
222	0x3d4e7e82	0.050413616
223	0x3a96ff5b	0.0011520194
224	0xbd260243	-0.0405295
225	0xbd8549a7	-0.06508189
226	0xbb88bf5f	-0.004173204
227	0x3b02d009	0.0019960424
228	0x3cdb8c1e	0.026800212
229	0x3cc5fa8e	0.024167325
230	0x3d9ee1c8	0.07757908
231	0x3d81a161	0.06329609
232	0x3da21cc4	0.07915643
233	0xbb9d5f4f	-0.0048026214
234	0xbb90327a	-0.0044005485
235	0x3d5bc323	0.053652894
236	0xbd1b7012	-0.037948675
237	0xbc332f4e	-0.010936571
238	0x3c2f2cd9	0.010691845
239	0xbcc839da	-0.024441648
240	0xbd407bea	-0.046993174
241	0xbd1c0a93	-0.03809602
242	0xbda05158	-0.07828015
243	0xbc171660	-0.009221643
244	0xbbab3c69	-0.0052257073
245	0x3d278f06	0.040907882
246	0x3c0262c4	0.007958118
247	0xbd2f243a	-0.042759158
248	0x3d06afb8	0.032882422
249	0x3c942b0f	0.018086938
250	0x3d0f8c39	0.035045836
251	0x3d18eac3	0.03733326
252	0xbd4bb74f	-0.049735364
253	0x3d7960bc	0.06088327
254	0x3d495c34	0.049160197
255	0xbd8b48d0	-0.06800997

bias f4 [80]
0	0xbd399aea	-0.045313753
1	0xbd7a9112	-0.061173506
2	0x3d5345e2	0.051580317
3	0x3d8372e0	0.06418395
4	0x3d7144a6	0.05890336
5	0x3cbcaad6	0.02303068
6	0x3ce3512e	0.02774867
7	0xbc0c6494	-0.008568902
8	0x3d8c03b1	0.068366416
9	0x3d5ee4aa	0.05441729
10	0x3ca17d08	0.01971294
11	0x3d365393	0.044513296
12	0x3c8183db	0.015809944
13	0xbd491dc4	-0.049100652
14	0x3a3b7934	0.00071515446
15	0xbcaf4466	-0.02139492
16	0xbd33633b	-0.043795805
17	0x3d7bc2c7	0.06146505
18	0x3c61e628	0.013787784
19	0xbd871480	-0.06595707
20	0x3d3b71c7	0.045762803
21	0xbd493e79	-0.049131844
22	0x3d0352c8	0.03206137
23	0xbd927bcd	-0.071525194
24	0xba7a3bd4	-0.0009545658
25	0xbcec0f45	-0.028815875
26	0x3d4fb4cc	0.05070953
27	0xbd2292dd	-0.03969084
28	0xbd5e50f1	-0.05427641
29	0xbd8f2d27	-0.06991034
30	0x3d28d8b9	0.041222308
31	0x3d8f0e4c	0.06985149
32	0x3abfa469	0.0014621142
33	0x3b52977b	0.0032133746
34	0xbd2f4f2b	-0.04280011
35	0xbd622329	-0.055209313
36	0xbd3a5d7e	-0.045499317
37	0x3cec8a7b	0.028874626
38	0xbcd0bd8e	-0.025481012
39	0xbd06bbdf	-0.03289401
40	0xbcb4ed70	-0.022085875
41	0x3d64ca1e	0.055856816
42	0x3c8732f8	0.016503796
43	0xbbcf9ca0	-0.00633581
44	0xbd365665	-0.044515986
45	0xbbf772a9	-0.0075515104
46	0xbd71d23b	-0.059038382
47	0xbd9a441b	-0.07532521
48	0x3d023306	0.03178694
49	0x3cc0441e	0.02346998
50	0xbc5f2ca0	-0.013621479
51	0xbb754b40	-0.0037428886
52	0x3a7f1af4	0.00097314944
53	0xbd1651ff	-0.03669929
54	0xbd513fec	-0.05108635
55	0x3d3af86b	0.045647066
56	0xbbf3d247	-0.0074408385
57	0xbc7779c0	-0.015104711
58	0x3d272ab9	0.040812228
59	0xbda38f56	-0.079863235
60	0xbd415c1c	-0.047206983
61	0xbca59844	-0.020214207
62	0xbceb423d	-0.028718108
63	0x3d0c0d55	0.034192402
64	0x3c97dfc4	0.018539317
65	0x3cce7000	0.02519989
66	0xbccd9514	-0.0250955
67	0xbcce0398	-0.025148198
68	0xbd4f6a14	-0.050638273
69	0x3becc490	0.0072255805
70	0xbce897e9	-0.028392749
71	0xbd8f403f	-0.06994676
72	0xbc98964c	-0.018626355
73	0x3d7d32b7	0.061815944
74	0xbd2b76b1	-0.04186124
75	0x3d151fd0	0.036407292
76	0x3bb78084	0.005600037
77	0x3da5c4e3	0.08094194
78	0x3d4d0b8b	0.050059836
79	0xbd64c128	-0.05584827
