checkpoints/trained_generator_TCNGAN_net_1_epoch_2.pth (torch, 643190 bytes, 31 tensors)

bias f4 [80]
00000000: cc72 78bf e9fc 623f 7119 3a3f 30e3 54bf
00000010: dc77 47bf c665 3a3e 1621 52bf 8461 853c
00000020: c69f 843e 94a1 093f 26e4 5e3f fbfc 1d3e
00000030: 0c40 793f f28f 383f 363f 9ebd 986d 73bf
00000040: 2577 8e3d bde3 8f3e e6d2 6bbe e838 34be
00000050: 2a20 e5be ace2 733f 4893 57bf a858 093f
00000060: 293d 753e 5842 4ebe 4d50 c33e 8ed4 513f
00000070: 3f15 cabe 4ca4 503f bf06 3f3e 1360 1ebf
00000080: 1a19 c53e 6ecf 263f 366e 3bbe 169c 7fbf
00000090: 463c 98bd f0c8 3cbf 16e5 6c3e 3260 67bf
000000a0: 15a7 203f 1159 d7bd a441 18bf 7d3e 763f
000000b0: bd50 14bf 3aac aebe e7ac 6d3f 8add 673f
000000c0: 6c7a cabe d675 123e b70d 403f 3656 213f
000000d0: 9d70 3a3f 82f7 ebbc cfd1 ae3e 0ab8 553f
000000e0: f74f c0be 1339 f53e 6f00 473e 7a4a 973e
000000f0: d0ae aa3d c5a9 563f 2210 0a3f 8e5c 7d3f
00000100: cb54 3d3f c4a1 f2bd e0e5 49bf 9732 c83e
00000110: 8b2c 24be 676f dd3e ab78 68bf a0e9 47be
00000120: 18b3 66bf bbf2 66bf b23a 993c 0c8e 0abf
00000130: 6277 2d3e 351a 5a3f 985d c93e 7727 1ebe
-0.97050166 0.8866716 0.7269507 -0.8315916 -0.77917266 0.18202886 -0.82081735 0.01628185
0.25903147 0.53762174 0.87066877 0.15428536 0.9736335 0.72094643 -0.077269 -0.950891
0.06956319 0.28103438 -0.2302967 -0.17599833 -0.44751102 0.9526775 -0.8420911 0.53650904
0.23949112 -0.20142496 0.38147202 0.8196496 -0.39469334 0.815007 0.18654917 -0.6186535
0.38495713 0.6516026 -0.18303761 -0.99847543 -0.07433371 -0.73744106 0.23134264 -0.9038116
0.62754947 -0.10515035 -0.5947516 0.961891 -0.57935697 -0.34115773 0.92841953 0.90572417
-0.39546525 0.14302763 0.7502093 0.6302217 0.72828084 -0.028804544 0.34144446 0.83483946
-0.37561008 0.47895107 0.19433759 0.2954901 0.08334124 0.838528 0.53930867 0.9896935
0.7395751 -0.118472606 -0.78866386 0.39101097 -0.16032617 0.43249056 -0.90809125 -0.19522715
-0.90117025 -0.9021413 0.018704746 -0.54122996 0.16940072 0.8519624 0.3932922 -0.15444742

weight_g f4 [80, 1, 1]
00000000: 713b 713f 461d 0aba 4ddd e13e 9e44 033f
00000010: 1e7a 013f f34a 673f 266c 473f 0fea 623f
00000020: 6e6b c23c c43c da3d f4c4 d73c 4b9b bc3e
00000030: 7409 c83d eeb7 dc3e b0eb 1f3f a945 013f
00000040: 6c1e be3e 38e5 733f fbc5 513f 604f 483d
00000050: 9c6a 0f3f f5cd 643f d80b 583e 56b2 693f
00000060: dfed 153f dbd0 713f edf8 dc3e 2bcc 7d3f
00000070: cc96 763e 822b 3f3f a401 103e bb7c 083f
00000080: f89e 243f 9f17 f03e 07ab f93e da6d 3f3f
00000090: e1f9 533f 20da 293d 05df 1b3f 90aa 243e
000000a0: 27ee 443f 8578 c43e 4520 073f ba7e 4c3f
000000b0: 1e89 7d3f a45f 893e 3d10 093e de9f 683e
000000c0: a03b 7a3d bf51 1f3f 9060 573e 413e 103f
000000d0: 243c 483f 7ea1 0c3e 1c30 7f3f fd35 103f
000000e0: 1adf 2c3f 5765 4a3f 2413 f33e 38b2 f03e
000000f0: 23c4 333f cd44 393e 47d3 293c d982 083f
00000100: 908b 933e 34ff 203f 9cb0 0f3f 6c96 fb3e
00000110: 6314 4d3f 196d f73e eafa 343f 0059 d23b
00000120: 95ac 463f 4acc 613f e862 393e 7c0b 7e3f
00000130: 1b52 823e d3bd 3b3f fc28 c93d 6996 173f
0.94231325 -0.00052686443 0.44114152 0.51276577 0.5057696 0.9034874 0.77899396 0.88638395
0.023732867 0.106561214 0.026339032 0.3683723 0.09767428 0.43109077 0.62469006 0.5049692
0.37132585 0.95271635 0.8194272 0.048903823 0.5602205 0.89376765 0.21098268 0.91287744
0.5856609 0.94459313 0.43158665 0.9913966 0.24080962 0.7467576 0.14063126 0.53315324
0.6430507 0.4689302 0.48763296 0.74776995 0.8280316 0.041467786 0.60887176 0.1608069
0.7692589 0.383732 0.52783614 0.7988087 0.9903735 0.2683078 0.133851 0.22717234
0.06109202 0.6223411 0.2103293 0.5634499 0.7821677 0.1373348 0.99682784 0.5633238
0.67527926 0.7906088 0.4747554 0.4701097 0.70221156 0.18092652 0.010365314 0.5332466
0.28817415 0.6288941 0.5612886 0.491382 0.8010923 0.48325422 0.70695364 0.006419301
0.7760709 0.88202345 0.18104136 0.99236274 0.25453267 0.73336524 0.0982227 0.5921388

weight_v f4 [80, 1, 1]
00000000: 82e8 70bf d953 45bb 7831 df3e 3c88 043f
00000010: a645 003f 4a6a 67bf 6aa1 47bf 26f7 633f
00000020: 59df c33c 50b0 dc3d 806f febc 8fcd bcbe
00000030: f023 bdbd 32f8 d93e 2b9e 1fbf c693 00bf
00000040: 338d bebe af7a 73bf 8588 523f 604f 48bd
00000050: d6e3 0fbf e0de 64bf d80b 58be 76d1 69bf
00000060: 8e3b 173f a65d 703f 1970 dcbe 1279 7c3f
00000070: d8bd 703e 0ab7 3e3f 888a 0e3e 5aad 093f
00000080: cac2 24bf d01b f0be 8c16 fabe 3e2c 3fbf
00000090: 8ead 53bf 20da 29bd c199 1bbf 90aa 243e
000000a0: 690e 453f 95ea c3be 1c49 083f 69b3 4d3f
000000b0: 1aac 7dbf d4b6 89be 880a 0f3e 18ab 68be
000000c0: a03b 7abd 7c76 1fbf 136b 5b3e c242 103f
000000d0: 9f5f 493f 786b 0bbe 9e45 7fbf 5c21 10bf
000000e0: 32f9 2cbf f27a 4abf 98f8 f4be 486b f33e
000000f0: 2471 33bf d8b6 39be 0058 2dbc 34a1 083f
00000100: b4df 933e 55b3 21bf 3ebf 103f 9810 fdbe
00000110: 2e8d 4c3f 9876 f7be f625 35bf 0059 d23b
00000120: d66b 46bf 786d 62bf f7cc 39be 3a10 7fbf
00000130: 8c98 82be 1bfd 3c3f 26d2 c3bd 22e0 173f
-0.9410478 -0.0030109792 0.4359243 0.5177038 0.50106275 -0.9039656 -0.77980673 0.89048994
0.023910211 0.107758164 -0.031059027 -0.3687558 -0.0923537 0.4257217 -0.6235072 -0.50225484
-0.372171 -0.95109075 0.8223956 -0.048903823 -0.56207025 -0.8940258 -0.21098268 -0.9133524
0.5907525 0.93892896 -0.43054274 0.9862224 0.2350992 0.74498045 0.13920033 0.5378014
-0.64359725 -0.4689622 -0.48845327 -0.74676883 -0.826867 -0.041467786 -0.60781485 0.1608069
0.76975113 -0.3826491 0.53236556 0.80351883 -0.9909073 -0.268973 0.13968861 -0.22721517
-0.06109202 -0.6229017 0.21427564 0.56351864 0.7866153 -0.13615215 -0.997156 -0.563009
-0.6756774 -0.7909385 -0.47845912 0.47542787 -0.70094514 -0.18136156 -0.010580063 0.53370976
0.2888161 -0.63164264 0.5654181 -0.49426723 0.79902923 -0.48332667 -0.7076105 0.006419301
-0.77508295 -0.88448286 -0.18144594 -0.99634135 -0.2550701 0.7382371 -0.09561567 0.59326375

weight f4 [80, 1, 1]
00000000: 723b 71bf 461d 0a3a 4cdd e13e 9e44 033f
00000010: 1e7a 013f f34a 67bf 266c 47bf 0fea 623f
00000020: 6e6b c23c c43c da3d f4c4 d7bc 4b9b bcbe
00000030: 7409 c8bd edb7 dc3e b0eb 1fbf a945 01bf
00000040: 6c1e bebe 38e5 73bf fbc5 513f 604f 48bd
00000050: 9c6a 0fbf f5cd 64bf d80b 58be 56b2 69bf
00000060: dfed 153f dbd0 713f ecf8 dcbe 2bcc 7d3f
00000070: cb96 763e 822b 3f3f a401 103e bb7c 083f
00000080: f89e 24bf 9f17 f0be 07ab f9be da6d 3fbf
00000090: e1f9 53bf 20da 29bd 05df 1bbf 90aa 243e
000000a0: 27ee 443f 8578 c4be 4520 073f ba7e 4c3f
000000b0: 1e89 7dbf a45f 89be 3d10 093e de9f 68be
000000c0: a03b 7abd bf51 1fbf 9060 573e 413e 103f
000000d0: 243c 483f 7ea1 0cbe 1c30 7fbf fd35 10bf
000000e0: 1adf 2cbf 5765 4abf 2413 f3be 38b2 f03e
000000f0: 23c4 33bf cd44 39be 47d3 29bc d982 083f
00000100: 908b 933e 34ff 20bf 9cb0 0f3f 6c96 fbbe
00000110: 6214 4d3f 196d f7be eafa 34bf 0059 d23b
00000120: 94ac 46bf 4acc 61bf e862 39be 7c0b 7ebf
00000130: 1b52 82be d3bd 3b3f fd28 c9bd 6996 173f
-0.9423133 0.00052686443 0.4411415 0.51276577 0.5057696 -0.9034874 -0.77899396 0.88638395
0.023732867 0.106561214 -0.026339032 -0.3683723 -0.09767428 0.43109074 -0.62469006 -0.5049692
-0.37132585 -0.95271635 0.8194272 -0.048903823 -0.5602205 -0.89376765 -0.21098268 -0.91287744
0.5856609 0.94459313 -0.43158662 0.9913966 0.2408096 0.7467576 0.14063126 0.53315324
-0.6430507 -0.4689302 -0.48763296 -0.74776995 -0.8280316 -0.041467786 -0.60887176 0.1608069
0.7692589 -0.383732 0.52783614 0.7988087 -0.9903735 -0.2683078 0.133851 -0.22717234
-0.06109202 -0.6223411 0.2103293 0.5634499 0.7821677 -0.1373348 -0.99682784 -0.5633238
-0.67527926 -0.7906088 -0.4747554 0.4701097 -0.70221156 -0.18092652 -0.010365314 0.5332466
0.28817415 -0.6288941 0.5612886 -0.491382 0.80109227 -0.48325422 -0.70695364 0.006419301
-0.77607083 -0.88202345 -0.18104136 -0.99236274 -0.25453267 0.73336524 -0.09822271 0.5921388

weight f4 [80, 1, 1]
00000000: 827e 773e 1c6d 67bf e516 09bf f724 8f3e
00000010: 9761 7dbf 8382 84be dc48 1bbf 9290 81bf
00000020: 6781 26be d90f 953c 38c2 ed3c 80c3 8cbf
00000030: 78b4 4f3f 7a42 873e 7f88 dbbe c807 c63e
00000040: 23d4 893f 3427 6c3e 7224 af3f 7317 87bc
00000050: 55b9 d3ba 6f82 4dbe 882c ed3e 640d d73e
00000060: ef09 79bf 7c4b 883e d76e 3b3f eeba f73e
00000070: e3fe d23e e21c 3c3e 57f3 383f a0e2 abbd
00000080: c973 143f 1e67 233f 386d d53e 507e 0ebf
00000090: 605b d03e 32a9 2d3f c2ca 623e 020d 8dbe
000000a0: 7d3e 00be 9c55 ac3e f8c4 773f 83c9 543f
000000b0: cebc ecbe 325d be3e 7ff4 523f d94d ed3e
000000c0: de8c 3abd 9916 203f aa3c 6cbe cb5c 9bbe
000000d0: 4127 93be 4565 493e 6673 1e3f 60f3 e2bd
000000e0: 9f8b 54be 860c 95bf eba3 1abf 9b97 4ebf
000000f0: 5cd0 d23e 6be9 80be d932 96be 96d2 79bf
00000100: da6a 16bf 85ba 15bd d845 c1be 9a7c cb3d
00000110: 783c 5b3e d58b 283f a4d0 3b3e 55f4 0bbf
00000120: 07e7 5e3e 43e8 b73e 8e86 d53d ccb6 953e
00000130: 2d21 563f a709 403d 33f9 333e 404b 833e
0.24169353 -0.9040086 -0.5355056 0.2795789 -0.98977035 -0.25880823 -0.6065805 -1.0122244
-0.162603 0.018196033 0.029023275 -1.0997162 0.8113475 0.26417905 -0.42877576 0.38677812
1.0767864 0.2306183 1.3682997 -0.016490674 -0.0016153256 -0.20069288 0.46323037 0.42002404
-0.9728078 0.2662009 0.73216003 0.48384804 0.41210088 0.18370393 0.7224631 -0.08392835
0.57989174 0.6382922 0.4168489 -0.5566149 0.40694714 0.67836297 0.22147658 -0.27548987
-0.12523837 0.33659065 0.96784925 0.8311998 -0.46237797 0.37180477 0.8240432 0.46348456
-0.045544498 0.6253448 -0.23070017 -0.30344233 -0.28740886 0.19667538 0.61894834 -0.11081576
-0.20756386 -1.1644447 -0.6040637 -0.8070008 0.4117459 -0.25178084 -0.2933567 -0.97586954
-0.5875679 -0.036554832 -0.377486 0.09935875 0.21409786 0.65838367 0.18341309 -0.54669696
0.21767817 0.3591939 0.10426055 0.29241025 0.8364437 0.046884205 0.1757553 0.2564335

bias f4 [80]
00000000: 6026 413e 137d e2bd ce0b 66bf 4912 953d
00000010: 5e87 5f3f 5041 f8be f302 763e 7cef 6fbf
00000020: 86ab 753f 8d88 a93d f34d 743f fa30 6b3f
00000030: 3c66 723f e159 64bf f4e4 ab3e 5a8e a9be
00000040: 5c20 3abe 056e efbc 6c4b 4fbf 5037 c8bd
00000050: e800 7f3f f026 e7be ec22 a7bd ad28 5e3e
00000060: 6e6b 0b3e 8770 44bf 66d1 233f c8a6 54bf
00000070: 7c11 e0be 0c78 4ebe fbd3 3b3f b54d 303f
00000080: 2334 c73e 0461 79bf 5834 bfbe 3c05 b93e
00000090: 989f 82be 7264 54be 0007 b93e 16a7 e53e
000000a0: fbcc 66bf 2077 d93d f727 2dbf 5a74 43bf
000000b0: 6494 e1be c450 7bbf 99ff 6b3e ffbc e03e
000000c0: 692f acbc 52f4 413e 44fd 28be 864a 4b3f
000000d0: ab5e 0b3f 9875 fabe 5a66 e2be 4aae 283f
000000e0: dc77 db3e 73b8 363f 24c2 493f ea6c 77bf
000000f0: 08e4 52bf 9ca0 f53e 3798 6abe e593 933e
00000100: ae6e 113f 899c 46be f3fe 0c3f c755 debe
00000110: a848 03bf 6356 4e3f 8dd4 383f 9b26 16bf
00000120: 8282 2c3f 5f19 a0be ebab 713f 4cb4 973e
00000130: 67fe c23e 5f24 33bd ae95 963e 5e22 ae3e
0.18862295 -0.11059012 -0.8986176 0.07278878 0.8731593 -0.4848733 0.24024563 -0.937248
0.9596485 0.08277998 0.9543144 0.9187161 0.9468725 -0.89199644 0.33573115 -0.33116418
-0.18176407 -0.029227266 -0.8097446 -0.09776175 0.9961076 -0.45146894 -0.08160958 0.21695204
0.136152 -0.76734203 0.6399139 -0.8306699 -0.4376334 -0.20162982 0.7337033 0.6886857
0.38906965 -0.9741366 -0.37344623 0.36136806 -0.25512385 -0.20741442 0.36138153 0.4485404
-0.90156525 0.106184244 -0.67639107 -0.76349413 -0.44058526 -0.98170114 0.23046722 0.43894193
-0.0210187 0.18940857 -0.16502863 0.7941059 0.54441327 -0.48917842 -0.44218713 0.65890944
0.42864883 0.713752 0.7881186 -0.96650565 -0.823792 0.47974098 -0.22909628 0.28823772
0.5680951 -0.19395651 0.5507652 -0.43424818 -0.5128274 0.80600566 0.72199327 -0.5865266
0.6738664 -0.31269357 0.9440295 0.29629743 0.3808472 -0.043735858 0.29411072 0.34010595

bias f4 [80]
00000000: bf01 123c a71a 99bd 7b2f 933d bd57 9a3c
00000010: 33fd 883c c822 573d b9d4 05bd 64ec 893b
00000020: bfbd 5c3d 7267 2fbd 541b 7c3d 80dd 853b
00000030: 8c8a 15bd 28b5 e03c c1cd 2e3d 46ae 973d
00000040: 252d 4d3d f204 40bd 0e99 0c3d c823 5c3c
00000050: dac2 babb f24a 713d 0081 a939 6b84 883d
00000060: 2e6e 16bd ec77 953d ae8f 0bbc a65d 5e3d
00000070: 43d1 953d 54c4 553c 3762 7cbd cd0f 7e3d
00000080: e6e3 a8bd 3bf0 863d 5fbf 17bd d4a9 713d
00000090: c6b0 87bd e5e0 4bbd b675 63bd 09b0 8f3d
000000a0: 29c8 143d a7ed 5b3d ec28 48bd 446f cc3b
000000b0: 0782 0cbd 9e16 21bd cdc5 6b3d 8b29 f33b
000000c0: 3a2e 6bbd e9bc 223d c033 87ba 2733 be3c
000000d0: c28c 0abd 832d 423d a189 a2bd 818e 70bd
000000e0: d424 903d 613a 40bd bc90 9e3d f141 903d
000000f0: 30ec 44bd 4cd0 953d d1a2 3d3d f2be 89bd
00000100: 8f50 96bd b545 1b3d 3286 49bd 653b 8fbd
00000110: 2809 f43b 389a 9f3c e486 bcbc d095 d23b
00000120: 9968 5abd 834b ad3a 6fa7 723d 32b5 0a3d
00000130: 5a8e 24bd cb82 18bd 0ca9 983d 5488 023d
0.008911549 -0.07475787 0.071867906 0.018840665 0.016722297 0.052523404 -0.03267357 0.004209088
0.053891893 -0.042823263 0.0615495 0.0040852427 -0.03650908 0.027430132 0.04267669 0.07406287
0.05009188 -0.046879716 0.03432565 0.013436265 -0.0056994976 0.058909364 0.00032330304 0.06665882
-0.03672617 0.07298264 -0.008518143 0.05428853 0.07315304 0.013047297 -0.061617102 0.062026788
-0.08246593 0.06588789 -0.03704774 0.05899985 -0.06625514 -0.049775023 -0.05553218 0.07015998
0.0363237 0.05369344 -0.04886715 0.00623885 -0.03430369 -0.03932821 0.057561684 0.007420724
-0.057417132 0.03973094 -0.0010315105 0.02321775 -0.033825643 0.047406685 -0.07936407 -0.058729652
0.070382744 -0.046930674 0.0774245 0.07043827 -0.04807681 0.0731512 0.046297852 -0.06725873
-0.07339584 0.037908275 -0.049200244 -0.069937505 0.0074473806 0.019482717 -0.02301354 0.0064265504
-0.05332241 0.0013221357 0.05924171 0.033864208 -0.04017482 -0.03723411 0.07454118 0.031868294

weight_g f4 [80, 1, 1]
00000000: ef2b 1a3f 1f4b 143f 0be2 153f 04c8 143f
00000010: fcf3 163f fb17 1a3f 938d 173f 7cd4 113f
00000020: 85ed 0c3f c7d5 193f b0fd 0c3f b9ec 1e3f
00000030: aaf8 113f 5ab2 0d3f 9b5d 153f da89 163f
00000040: 1117 1c3f 4e0c 163f 800c 163f 29fb 113f
00000050: 4c9f 143f af99 163f 090e 1b3f 2c4e 133f
00000060: 5091 143f 2f84 183f f29e 133f 526d 0f3f
00000070: 4a38 143f 3eb5 163f 67c2 103f f303 1e3f
00000080: 8217 183f 2519 0b3f 07fb 0f3f 8c11 103f
00000090: ebe8 103f 098c 133f 2982 113f 3727 193f
000000a0: 1119 0b3f e75a 1a3f c0b3 183f fe14 163f
000000b0: 00c9 133f 2819 0f3f 5329 1d3f b01a 143f
000000c0: 90f1 103f fc06 1c3f 5002 0e3f 6a79 0e3f
000000d0: 55b8 0d3f da5b 103f 1873 113f 2bd7 163f
000000e0: ee5f 133f 3c66 0f3f 8f25 123f 4fb8 1c3f
000000f0: ae02 0b3f 7c03 183f 868b 103f ef04 113f
00000100: a48b 123f 818d 0b3f 5cc7 0b3f 8f0e 113f
00000110: aea6 143f 7344 123f 49fb 153f 4072 143f
00000120: e3c9 143f ead0 153f ce46 0f3f 3d16 183f
00000130: 1c9b 0f3f 9661 163f b3ac 113f 939a 0f3f
0.6022329 0.57927126 0.5854804 0.581177 0.5896604 0.6019284 0.592004 0.5696485
0.55049926 0.60091823 0.55074596 0.6207996 0.57020056 0.5535027 0.58345956 0.58804095
0.60972697 0.58612525 0.58612823 0.57023865 0.5805557 0.5882825 0.6056829 0.57541156
0.5803423 0.59576696 0.57664406 0.56026185 0.5789839 0.58870304 0.56546634 0.61724776
0.5941087 0.5433524 0.5624241 0.56276774 0.56605405 0.5763555 0.56839234 0.5982546
0.54335123 0.60294956 0.59649277 0.5862578 0.57728577 0.5589776 0.6139118 0.5785322
0.56618595 0.6094816 0.5547228 0.55654013 0.55359393 0.56390154 0.56816244 0.5892207
0.5756825 0.5601537 0.5708856 0.6121873 0.54300964 0.59380317 0.56462896 0.56648153
0.57244325 0.5451279 0.54601073 0.5666284 0.58066833 0.57135695 0.58586556 0.5798683
0.58120555 0.585219 0.55967414 0.5940893 0.56096053 0.58742654 0.56904143 0.56095237

weight_v f4 [80, 80, 2]
00000000: 69bf 393d 0e4e 8c3d 095d 283c 0b65 3d3d
00000010: a461 353d 3eb0 43bd 0c7d 373d 393d 67bd
00000020: 3624 88bc 6f39 2fbc 100b 5b3d 0691 923d
00000030: fdf3 5dbd 6508 573c 4d6f 4b3d 3b57 0ebd
00000040: 49be 5ebd eab7 57bd 4693 07bd 490a 0cbd
00000050: 92e9 963c ebc9 313d e116 16bd 1ab8 923d
00000060: ef45 8bbd 5c8b 9d3d 1872 10bd 1e7d 08bc
00000070: 9ead d03c 3133 843d 5983 74bd 8695 1a3d
00000080: c73a 47bc 8b8e 9e3b 0ea9 55bd 960e fc3c
00000090: c2b1 32bd 937b 233d 0de7 c83c 7d38 28bd
000000a0: 3231 8d3d fb9d 4a3d a571 193d 18bb 8f3d
000000b0: 3ba1 1b3c 74be 75bc 66ce 87bd 2a01 2cbc
000000c0: 5b97 593c bc47 dc3c 0b83 6d3d 5daf 38bd
000000d0: 57b3 9bbb df02 7fbc 89ee d13c bddf a7bc
000000e0: 90fd 6c3d d3a5 5bbc ccfd 773c 5dab 383d
000000f0: 29fd efbc 9f59 893c f4f8 7fbc 0f82 47bd
00000100: 8d9e 2fbd 9f20 9b3d e555 903c 1713 86bd
00000110: 444c a6bc 181c fcbc 8a4a 1d3d 2449 8f3d
00000120: a75e 86bd e118 5c3d 9d90 903d 4981 95bd
00000130: 843e c7bc d68c 913d 396d 273b e2a9 43bd
00000140: d943 9cbd 277b 3a3b ea73 153d c7f2 91bd
00000150: 0798 8ebc dcf7 683c 1530 c33c 6313 06bd
00000160: 67ab 9b3d 90e0 3fbd 2ba8 57bd 9b1a ce3c
00000170: a41d 70bd 0210 7e3b bbea 993d aa46 2e3d
00000180: e4c0 1c3d 3bb6 89bd 8d04 72bd 2c93 97bb
00000190: f178 663d d0d5 80bc 91e4 e0bc c29a 89bd
000001a0: 9f9c 173d 4c4e 6d3d ede3 73bd 1720 073d
000001b0: 169f dbbc 4937 973c b3ba 3bbd 5a9d 4ebd
000001c0: 6dbe 343d 2e24 6cbd a9ec edbc 1231 953d
000001d0: 0475 50bd f413 673d dbbb 2bba 96bb 81bd
000001e0: 350d 98bd 7834 933d 96da 8c3d a266 8abd
000001f0: c734 573b 0976 263d 9f91 94bd 9809 e7bb
00000200: 118e 5ebd f054 11bd ff3b 483d ec81 bebc
00000210: 4393 153d 7e28 8cbd e16c 5fbd 1766 45bd
00000220: 0bae 503d 08fd 2dba c74d 5f3d d8b9 ce3b
00000230: 7848 9e3d 7550 b63c 1c9b 35bd c69d 4abd
00000240: aa77 983c 0744 553d ee4c 74bc 966b 61bd
00000250: 4752 993d cb63 633d bcc7 913d bcab cebc
00000260: d795 933c 10b9 74bd 53df 0abd a85b 9f3d
00000270: 0589 4f3d f208 47bd 7f53 f23c eaf0 413b
00000280: c531 863d ac84 7dba 8cf0 f53c b3f9 38bd
00000290: 1223 f6bc 23aa 243d a223 f83b 747b 50bd
000002a0: 560f 923d 7644 b4bc c25b 783d 50e1 9abd
000002b0: c04b 58bd 05d7 383d f406 a53b 8d13 853d
000002c0: cd69 ebbc 8205 cc3c 860d 10bd 47fb 833c
000002d0: 9a1e 1b3c f6d7 9f3d d2a5 bcbb 3fb9 5ebc
000002e0: 879d 65bd 5bc8 3e3d 088b 8d3d 9778 4fbd
000002f0: b48b 96bd b953 0ebc ebc1 323d fbcd 9cbb
00000300: 4af4 9dbd bd63 e8bc 3b1f 2d3d 8adc f13b
00000310: b39a 72bd cb64 22bd 7c4c 2f3c 474e 52bb
00000320: 101e b73c c80d a9bc e027 e83a bbbd 393d
00000330: 74f2 34bd 39b7 d8bc e80f 6dbd 1464 ca3b
00000340: 688a 64bc f694 96bd f7bd 873d 0753 1f3c
00000350: 9418 5a3d fac9 5c3d 705c 3b3d 9382 45bd
00000360: 3bbd 0bbc 30fb 03bd acb4 783d 84cd 87bd
00000370: 07dc 84bd 8f5b 12bd d3b4 67bd d5cf 1c3d
00000380: 365f 15bd 98c2 8a3d cfc4 f2bc 61dc 21bc
00000390: 892c a43c 4bb5 8ebd 96e4 92bd b1f0 003c
000003a0: c51b bb3c 44b6 85bd aeef 1d3d f54c 96bd
000003b0: 168f 35bd 2a7c 333d 5b11 663d 6f55 e43c
000003c0: ed6c 873d 67fb 613c 62b1 82b9 d241 7f3d
000003d0: d021 76b8 d210 8b3d 526f 973d cb93 3cbd
000003e0: 5db5 9cbc 1722 debc 9aed 8d3c e686 413b
000003f0: f647 7b3d 7e31 2abd 978d 913d 439c 863c
0.04534856 0.06850825 0.010276088 0.04623894 0.04428257 -0.0477755 0.04479699 -0.05645487
-0.01661883 -0.010694846 0.053477347 0.07156567 -0.054187763 0.01312456 0.04966669 -0.03475116
-0.05438069 -0.05266563 -0.033099435 -0.034189496 0.018421922 0.043405455 -0.036642913 0.07164021
-0.06800448 0.07692596 -0.03526506 -0.0083306115 0.025473412 0.064550765 -0.059695575 0.037740253
-0.01216001 0.00483877 -0.052163176 0.030768674 -0.043626554 0.03991277 0.024524236 -0.041069496
0.06894149 0.04946707 0.037461895 0.07018107 0.00949889 -0.014999021 -0.06631164 -0.010498324
0.013280715 0.026889674 0.0579863 -0.045089114 -0.0047516036 -0.015564649 0.025626438 -0.020492429
0.057859004 -0.013406235 0.0151361935 0.0450853 -0.02929552 0.016766367 -0.01562332 -0.048708018
-0.042875815 0.07574581 0.017619083 -0.0654661 -0.020300038 -0.030775115 0.038401164 0.06996372
-0.06561022 0.053734664 0.07058833 -0.0730005 -0.024321802 0.071069404 0.002554728 -0.047769435
-0.076301284 0.0028454752 0.036487497 -0.07126384 -0.017406477 0.0142192505 0.023826638 -0.032733332
0.07601052 -0.04684502 -0.05265061 0.02515917 -0.058622018 0.0038766866 0.075154744 0.04254786
0.038269892 -0.06724211 -0.05908637 -0.0046256986 0.056267682 -0.015726954 -0.027452739 -0.06718971
0.0370146 0.057935998 -0.05954354 0.032989588 -0.026809257 0.01845898 -0.045832347 -0.05044303
0.044126917 -0.05765169 -0.029043512 0.0728475 -0.050892845 0.056415513 -0.0006551125 -0.06334607
-0.07424394 0.07187742 0.068776295 -0.06757857 0.0032837854 0.04063991 -0.072543375 -0.007050704
-0.054334704 -0.035481393 0.04888534 -0.023255311 0.036517393 -0.06843661 -0.054547194 -0.048193064
0.05094723 -0.0006637131 0.054517534 0.0063087754 0.07728666 0.022255162 -0.044337377 -0.04946687
0.018611748 0.05206683 -0.01491092 -0.055034243 0.07486396 0.055515092 0.071181744 -0.025228374
0.018015785 -0.0597468 -0.033904385 0.07781154 0.05066778 -0.048592515 0.02958083 0.002959306
0.065524615 -0.0009670954 0.030021928 -0.045160007 -0.03004602 0.040201318 0.007572607 -0.050898984
0.07131831 -0.022005301 0.060634382 -0.07562506 -0.052806616 0.045126934 0.0050362293 0.0649787
-0.028736973 0.02490497 -0.035169147 0.01611103 0.009467745 0.07804863 -0.005757072 -0.013593971
-0.056058433 0.046577793 0.06911284 -0.050652113 -0.07350865 -0.008686953 0.043641966 -0.004785297
-0.0771261 -0.028367871 0.04226611 0.0073810266 -0.059229564 -0.039646905 0.010699388 -0.0032090114
0.022353202 -0.020636454 0.0017712079 0.045346957 -0.044176534 -0.026454555 -0.057876498 0.006176481
-0.013949014 -0.07352631 0.0662803 0.009724385 0.053246096 0.053903557 0.045742452 -0.04822023
-0.008529003 -0.032221973 0.060719177 -0.06630996 -0.064872794 -0.03573185 -0.05656893 0.03828414
-0.036467753 0.06775397 -0.029634861 -0.009879203 0.020040767 -0.06968173 -0.071725056 0.007869885
0.02284039 -0.06528905 0.038558654 -0.07338897 -0.04432591 0.043819584 0.056168895 0.02787277
0.06612573 0.013792849 -0.00024927693 0.06231863 -5.868246e-05 0.067903176 0.073942795 -0.046039384
-0.01912945 -0.027115865 0.017325211 0.0029529869 0.061347924 -0.041551106 0.07107084 0.016431933

weight f4 [80, 80, 2]
00000000: 3943 3c3d 5c34 8e3d 98a4 2a3c 7ff5 3f3d
00000010: 52d6 373d 8356 46bd 08f9 393d b65e 6abd
00000020: 16fc 89bc c698 31bc 4802 5e3d 088d 943d
00000030: 4bf5 60bd b6f1 593c 6b30 4e3d 9844 10bd
00000040: 54c2 61bd 9ca3 5abd 3069 09bd acef 0dbd
00000050: a4f4 983c 2532 343d 191f 18bd a4b4 943d
00000060: aa28 8dbd 6bad 9f3d c066 12bd 3256 0abc
00000070: e980 d33c 68fd 853d d9d2 77bd 52ad 1c3d
00000080: 52ed 49bc 1cb4 a03b 9e8d 58bd 3b78 ff3c
00000090: 201d 35bd 37b2 253d 649f cb3c 8d7f 2abd
000000a0: 941a 8f3d 445c 4d3d 7e85 1b3d 46ad 913d
000000b0: a7bc 1d3c 3812 79bc 1da5 89bd 5855 2ebc
000000c0: 8a89 5c3c 3d43 df3c 46ba 703d 7e2f 3bbd
000000d0: 02cf 9dbb 613b 81bc 2cc6 d43c 9a25 aabc
000000e0: fd32 703d 239f 5ebc 5a59 7b3c 702b 3b3d
000000f0: fa3c f3bc af35 8b3c 16b8 81bc 9135 4abd
00000100: 42ff 31bd 4e3a 9d3d 2c4a 923c cde3 87bd
00000110: aa8c a8bc ec85 ffbc b86b 1f3d c739 913d
00000120: 6330 88bd c013 5f3d af85 923d 7b87 97bd
00000130: 1cf1 c9bc 5285 933d 89b1 293b 1150 46bd
00000140: 7961 9ebd 8201 3d3b ed79 173d a5ec 93bd
00000150: 4486 90bc 581f 6c3c 9ed4 c53c 1ae4 07bd
00000160: f7c6 9d3d 9f79 42bd a693 5abd fae4 d03c
00000170: e65d 73bd 4dc0 803b 3700 9c3d b7a2 303d
00000180: 35e0 1e3d 8c93 8bbd 664b 75bd 8aa0 99bb
00000190: c697 693d 5d94 82bc 0ff0 e3bc b477 8bbd
000001a0: 1eaa 193d d084 703d 4431 77bd 71f4 083d
000001b0: 4f98 debc 6943 993c 6245 3ebd 7e69 51bd
000001c0: e530 373d a956 6fbd 5225 f1bc 2e36 973d
000001d0: 8b47 53bd e234 6a3d 190f 2eba 3f7d 83bd
000001e0: 3a1c 9abd b132 953d cbc2 8e3d 5746 8cbd
000001f0: b21e 5a3b 00b7 283d 9294 96bd 622a eabb
00000200: 7591 61bd ab4c 13bd 05f2 4a3d 3c16 c1bc
00000210: b399 173d 4a0e 8ebd 4973 62bd 4912 48bd
00000220: 5781 533d 1658 30ba c353 623d 5f86 d13b
00000230: 176d a03d 5fc8 b83c 9110 38bd 0e5c 4dbd
00000240: 2088 9a3c 3827 583d b19b 77bc e878 64bd
00000250: b365 9b3d f177 663d 05c1 933d 1278 d1bc
00000260: 6195 953c 4a09 78bd aac0 0cbd 0084 a13d
00000270: 5a58 523d d0ba 49bd 6a9b f53c 2091 443b
00000280: cf8d 873d 170b 80ba 666e f83c 71d9 3abd
00000290: 70a1 f8bc 3355 263d 31a7 fa3b 2998 52bd
000002a0: 268a 933d fe17 b6bc e2df 7a3d 0073 9cbd
000002b0: b97c 5abd 69b6 3a3d f5b2 a63b b06c 863d
000002c0: 5bcc edbc a516 ce3c 2183 11bd 9451 853c
000002d0: e9b0 1c3c 8576 a13d 168f bebb e3fa 60bc
000002e0: 0bf1 67bd 28b7 403d 21fa 8e3d ac92 51bd
000002f0: 2612 98bd dac4 0fbc 8891 343d a964 9ebb
00000300: f38d 9fbd 73be eabc 3be0 2e3d d14f f43b
00000310: e70f 75bd f809 24bd 2113 313c b76f 54bb
00000320: fcf8 b83c 3ac4 aabc fb81 ea3a 759f 3b3d
00000330: bfc7 36bd 48e9 dabc bc76 6fbd fd70 cc3b
00000340: 22db 66bc 801b 98bd 041e 893d 3ef0 203c
00000350: 384e 5c3d 9a06 5f3d 5e42 3d3d d382 47bd
00000360: a627 0dbc 7c51 05bd b339 7b3d ba2d 89bd
00000370: 9a34 86bd 24d7 13bd c30d 6abd 8766 1e3d
00000380: 9de2 16bd 792a 8c3d 703a f5bc 2c80 23bc
00000390: 54d6 a53c 6927 90bd 8f61 94bd 1a3f 023c
000003a0: 0b01 bd3c 0d11 87bd 4b89 1f3d c4d2 97bd
000003b0: f765 37bd aa4d 353d 0b66 683d a0a5 e63c
000003c0: 28cc 883d 7f45 643c 5704 84b9 ebeb 803d
000003d0: 2aa0 78b8 7e79 8c3d 12f8 983d e07c 3ebd
000003e0: cb4b 9ebc 3362 e0bc b35d 8f3c d17c 433b
000003f0: abd3 7d3d e5ea 2bbd 1607 933d 61f9 873c
0.045962546 0.069435805 0.010415219 0.046864983 0.044882126 -0.048422348 0.04540351 -0.05721923
-0.016843837 -0.010839647 0.054201394 0.07253462 -0.05492143 0.013302257 0.050339144 -0.035221666
-0.055116966 -0.053378686 -0.03354758 -0.034652397 0.018671341 0.043993134 -0.037139032 0.07261017
-0.06892522 0.07796749 -0.03574252 -0.008443402 0.025818305 0.06542474 -0.060503814 0.03825123
-0.012324648 0.004904283 -0.05286943 0.03118526 -0.04421723 0.040453162 0.024856277 -0.04162555
0.06987491 0.05013682 0.037969105 0.071131274 0.009627498 -0.015202098 -0.06720946 -0.010640465
0.013460526 0.027253741 0.058771394 -0.04569959 -0.004815937 -0.015775384 0.025973402 -0.020769883
0.058642376 -0.013587746 0.015341127 0.045695722 -0.029692162 0.016993372 -0.01583485 -0.04936749
-0.043456323 0.07677136 0.017857634 -0.066352464 -0.020574886 -0.031191789 0.038921088 0.07091098
-0.06649854 0.054462194 0.07154404 -0.07398888 -0.024651103 0.07203163 0.0025893173 -0.0484162
-0.07733435 0.002884001 0.03698151 -0.07222871 -0.017642148 0.01441177 0.024149235 -0.03317652
0.07703965 -0.04747927 -0.053363465 0.02549981 -0.05941572 0.003929174 0.076172285 0.043123927
0.03878804 -0.06815252 -0.05988636 -0.004688327 0.057029508 -0.015939886 -0.02782443 -0.06809941
0.037515752 0.05872041 -0.060349718 0.033436242 -0.027172236 0.018708901 -0.046452887 -0.051125996
0.044724364 -0.058432255 -0.029436741 0.07383381 -0.0515819 0.05717934 -0.0006639823 -0.06420373
-0.07524915 0.07285059 0.069707476 -0.06849354 0.0033282456 0.041190147 -0.07352556 -0.0071461657
-0.05507036 -0.03596179 0.049547214 -0.023570172 0.037011813 -0.06936319 -0.055285726 -0.048845563
0.05163702 -0.0006726993 0.055255663 0.006394192 0.07833307 0.022556482 -0.044937674 -0.05013662
0.018863738 0.052771777 -0.015112803 -0.055779368 0.07587757 0.05626673 0.0721455 -0.02556995
0.018259706 -0.060555734 -0.034363426 0.07886505 0.05135379 -0.049250424 0.029981334 0.0029993728
0.06618845 -0.000976893 0.03032608 -0.045617525 -0.030350417 0.040608596 0.0076493253 -0.051414642
0.07204084 -0.022228237 0.061248668 -0.07639122 -0.0533416 0.045584116 0.0050872513 0.06563699
-0.029028108 0.025157282 -0.035525445 0.016274251 0.009563663 0.07883934 -0.005815397 -0.013731691
-0.05662636 0.04704967 0.06981302 -0.051165268 -0.074253365 -0.00877496 0.044084102 -0.004833777
-0.077907465 -0.028655266 0.04269431 0.007455804 -0.05982962 -0.04004857 0.010807783 -0.003241522
0.022579663 -0.020845521 0.001789152 0.045806367 -0.044624086 -0.026722565 -0.058462843 0.006239055
-0.014090331 -0.0742712 0.06695178 0.009822903 0.053785533 0.054449655 0.04620587 -0.048708748
-0.00861541 -0.032548413 0.061334323 -0.06698175 -0.06553002 -0.036093846 -0.05714203 0.038671996
-0.03683721 0.068440385 -0.029935092 -0.009979289 0.020243801 -0.07038767 -0.0724517 0.007949615
0.023071786 -0.06595049 0.038949292 -0.07413247 -0.044774976 0.04426352 0.05673794 0.028155148
0.06679565 0.013932585 -0.00025180235 0.06294998 -5.9276972e-05 0.0685911 0.07469191 -0.04650581
-0.01932325 -0.027390575 0.017500734 0.0029829035 0.06196944 -0.04197206 0.07179086 0.016598405

bias f4 [80]
00000000: 2820 9f3c 7e63 df3c ec38 a1bc 7327 96bd
00000010: ea3e 8dbc 2fe0 18bd d60f 9c3c 921b 07bd
00000020: c5be 2dbd 4296 323d 80a0 20bd 00e2 4bbd
00000030: 94aa 933c 18c6 08bd 1c31 66bd 300d ddbb
00000040: 25be 1cbd ca6c 93bd 6210 fa3c 5aef 753d
00000050: f875 8dbc 7245 093d c44a 0f3d c061 c83c
00000060: 2f4e 903c f2dd 9c3d cca6 623c 90b4 6c3b
00000070: c53f 313d 3333 0e3d 2ae7 a03c c5b5 7e3d
00000080: 6bd1 833d 5f21 643d 2ad4 b4bc 4a4e 793d
00000090: 0c01 393d e449 f9ba c956 3bbd 8ef9 583d
000000a0: 837b 453d 8d1e ec3b 1d17 8fbd f3b2 68bc
000000b0: 35db 673d 9915 513d e24b 7f3d 0951 d7bc
000000c0: 441f 063b 7375 933d db4d 14bd 9b56 97bd
000000d0: c403 9fbc 5cca 83bd 6642 97bd 5e4d ed3c
000000e0: 6bd5 c4bc b762 d1bc 7ba7 dd3b 9f36 213b
000000f0: 4f3d 93bc beb1 23bd 52c4 913d 41b9 deba
00000100: 6864 953a b477 6dbd 88c7 58bc 4fa7 90bd
00000110: 4619 c7bc e5c9 2ebd bc34 7c3d 1179 883d
00000120: 64a8 683c d23c 983c 226e e5bb d808 033d
00000130: 063e 933d 5d0b 5c3c 3643 893d 1c70 063d
0.019424513 0.027269121 -0.019680463 -0.07331743 -0.017241914 -0.037323173 0.01905052 -0.032985277
-0.04241826 0.04360033 -0.039215565 -0.049776077 0.018025674 -0.033392042 -0.056199178 -0.006745957
-0.038267273 -0.07198484 0.03052539 0.060042717 -0.017268166 0.033513494 0.03498341 0.024460673
0.017615406 0.0765952 0.013833713 0.0036118366 0.043273706 0.034716796 0.019641478 0.062185068
0.06436428 0.055695888 -0.022073824 0.060865678 0.045167014 -0.0019019214 -0.04573706 0.05297237
0.048213493 0.0072057904 -0.069868304 -0.014202821 0.056605536 0.051045988 0.062328227 -0.026283758
0.0020465413 0.07200136 -0.03620706 -0.073895656 -0.019410975 -0.06435081 -0.07385711 0.028967556
-0.024027547 -0.025559766 0.00676435 0.0024599207 -0.01797357 -0.03996443 0.07117523 -0.0016992466
0.0011397721 -0.057975486 -0.013231166 -0.070631616 -0.024304044 -0.04267301 0.06157373 0.066637166
0.014200304 0.018583689 -0.0070016542 0.031990856 0.071895644 0.013430444 0.067022726 0.03282176

weight_g f4 [80, 1, 1]
00000000: b83c 113f 4dbe 113f 43ae 163f fa31 153f
00000010: 56c9 123f 93f8 0b3f fc21 103f 11af 143f
00000020: 6439 0f3f 1818 193f 980a 103f c636 103f
00000030: 1cb4 193f e507 133f 1970 0b3f 69e6 123f
00000040: e2d9 123f 9da8 113f 48b3 153f 1efc 123f
00000050: 8740 143f 2f2c 0f3f d446 113f 026e 153f
00000060: 4f26 163f a72a 173f 6062 0f3f bf35 103f
00000070: 822b 123f 2666 143f 4d01 123f ff79 1b3f
00000080: 6ca6 0e3f 5b79 103f adfa 1b3f 66e9 043f
00000090: 1fa2 123f 0d06 163f ade9 1d3f 0c63 0e3f
000000a0: 2284 0d3f 0ea5 0f3f 59f8 0d3f e29e 193f
000000b0: 7a3c 0d3f ed50 193f 31b0 173f ae45 1e3f
000000c0: 7d2d 153f 0e6d 1a3f a2fb 023f a4e4 123f
000000d0: 079a 183f 5afa 143f 3ec1 103f 3244 173f
000000e0: f693 0b3f 6a2f 103f ea47 163f 66e6 1f3f
000000f0: 8801 113f 9fa9 1a3f 8b2e 1b3f 17c0 123f
00000100: c70a 123f ee6b 193f fc2d 1b3f f5f0 113f
00000110: f045 0e3f 1b2b 173f ec30 0f3f 4170 0a3f
00000120: 862c 0d3f cb9d 123f 4e3c 1a3f b260 093f
00000130: 334f 123f ce63 163f b0d7 0c3f 9cc9 0a3f
0.56733274 0.56931 0.5885965 0.58279383 0.57338464 0.5467617 0.56301856 0.5807963
0.55946946 0.5980239 0.56266165 0.5633358 0.6004045 0.5743392 0.5446792 0.5738283
0.5736371 0.5689791 0.58476686 0.5741595 0.5791096 0.55926794 0.567487 0.58370984
0.58652204 0.5904946 0.56009483 0.5633201 0.5709764 0.57968366 0.57033235 0.60733026
0.5572269 0.56435174 0.60929376 0.5191864 0.5727863 0.5860298 0.61684686 0.55619884
0.55279744 0.5611123 0.55457073 0.6000806 0.55170405 0.5988911 0.5925322 0.6182507
0.58272535 0.60322654 0.5116521 0.5738013 0.5961003 0.58194506 0.56544864 0.5908843
0.54522645 0.5632235 0.5870348 0.62460935 0.5664296 0.6041507 0.60617894 0.57324356
0.57047695 0.5993031 0.6061704 0.57008296 0.55575466 0.5905015 0.55934024 0.54077536
0.5514606 0.5727202 0.6024827 0.5366317 0.571521 0.5874604 0.55016613 0.5421388

weight_v f4 [80, 80, 2]
00000000: d043 d93c 4a29 c23c 98b8 0cbc fb65 c2bc
00000010: 16b9 213d 80d8 9ebd 5a8b 8fbd a0eb 69bd
00000020: 94c7 80bb 6f32 7b3d a6f9 4abd 0f83 303d
00000030: 3fe5 acbc 81c4 40bc 77ab 093a b252 b33c
00000040: 2c94 53bd 3c65 12bc 1a56 74bd ae34 51bc
00000050: 49aa d03c 5cd7 fb3b 879b 143d 85bb 553d
00000060: 5354 8b3b 3ab6 b8bc dfc6 9b3c 9440 613c
00000070: e40f 7f3b 39d9 8e3d caeb 103d 18e3 1ebd
00000080: 32e4 663b baca 173d 195b 78bd ab21 923c
00000090: 3f6c 78bd 586e 033d 38e7 2b3c f4fb 05ba
000000a0: ea8b 73bb 9c87 953d 8abb 70bd 0d40 823c
000000b0: 78da a8ba d097 96bc 28be f9bb 041a 883c
000000c0: 4ca1 e1bc e573 0c3c 4ca0 87bd 9605 1cba
000000d0: 9af4 4dbd 94a4 babc 0b4e 40bd 82ff a73d
000000e0: e459 8fbd 626b 97bc ffbe 70bd 6e89 a23d
000000f0: 7963 853d afd6 6c3d c251 81b9 ab31 723d
00000100: 2a5e 303d 3352 8d3d 28d9 013d d4b1 4fbd
00000110: 957c 3abd 685c c73a f3ab 3d3d 259a 31bd
00000120: 2a24 98bd 666c d6bc 99fc 953d e478 353c
00000130: 5002 2b3d 3a05 0bbc 305e 9d3d 07ee bc3c
00000140: 1493 46bd 1664 943d ea9f 973d dd35 473c
00000150: 1bcc b8bc 1ea4 3c3d b22a 50bb 680f eebc
00000160: 068e 693d c2e8 ebbc 20e1 1239 d25f 8d3b
00000170: 80b6 9b3d a4d6 183d 2b7f 883c 91b6 43bc
00000180: 305d e0bc 8acf 8b3d 0181 9c3c 95b4 673d
00000190: 369a 14bd 351e 48bd 6821 78bb 2e53 60bd
000001a0: 66e4 893d 4b5f 93bb f04b 6bbc 54de 35bd
000001b0: d291 49bd 0b78 9d3d 1c61 9abd d2eb f43c
000001c0: d4f9 ef3c 0836 5cbd 2309 2b3d 2955 2a3d
000001d0: 253d 263d 1421 f6bc 279e 443d 9cf5 8d3d
000001e0: d798 0ebd eca0 84bd 5880 343d ccd4 91bd
000001f0: e890 0dbd c6d7 83bd 15ec 7ebd f3a1 6e3d
00000200: 4269 303d cfaa 4cbd a4c8 ef3b 8512 ddbc
00000210: 0a2f 223d b11d 213c 0844 36bd 2c25 41bd
00000220: 9db3 873d d4d1 09bc 50ac 473d c6d4 9ebd
00000230: 1cbc 01bd 8673 a13b b71d 953d 35dc acbc
00000240: b1f7 ca3c 2c9b 523d c120 41bd 4e8a 91ba
00000250: 2e94 8e3d d0ec 6a3c f651 2e3d 8cfa e5b9
00000260: f7a7 2b3d c033 af3c 0692 193c d133 1d3d
00000270: 2a27 083c e475 783d d312 8fbd 47c0 16bd
00000280: cb7a 183d f474 493d 5545 92bd 5787 9f3d
00000290: 7db2 1c3c 08e5 963d 6ece d6bc bc62 273c
000002a0: fbec 873d 8439 5ebb fc5d 3a3d 017b 933d
000002b0: c7ce 16bd 4ea5 b4bb f876 0cbd 3ce6 4dba
000002c0: 2020 173d ac22 813d 5d69 823d e03d f0bb
000002d0: 2dee 1dbd 8a45 99bc 183c 07bd 0cf1 7bbd
000002e0: 1638 93bc 80c1 50bd 48ca 203d 6c83 9dbd
000002f0: ca77 8d3d 77f9 df3c 6779 83bd bbc1 8f3d
00000300: 6c7a 9dbd 40f7 0cbd 5c2c d03c d8dd 9dbc
00000310: ee25 7bbd 095f b6bc b19f 983d 9097 d43c
00000320: 32d3 833c 6844 cfbc b261 3cbc fad1 353b
00000330: 07e3 3fbc 25e2 9a3d d22d 4dbd 3722 7abd
00000340: 1457 97bd 25b0 203d bdcc 413c c409 91bd
00000350: 67c4 833d 9c82 e8bc 2a5d 2a3d b9eb 87bd
00000360: 4338 30bd 2e79 213d 87c3 743c afe1 2b3d
00000370: 5e69 8e3d 1b90 743c 62c9 493d f2ca 943b
00000380: 4897 20bd fc30 81bd b007 48bb 0a88 a63a
00000390: 1810 cf3c 0339 e43c 9d98 9d3d 05d8 8a3d
000003a0: 07e4 a03d d66b e2ba 600e 55bb e7e4 6e3d
000003b0: 96d8 15bd 06d5 01bc 6825 163c 165d b1bc
000003c0: 2f86 3bbd 9dae 10bd 790f 9fbd be89 c5bb
000003d0: a49d 82bb 0d36 313d f4df d53b 28a3 23bd
000003e0: 43c6 003d e7a5 b03c c4c4 093d e948 133d
000003f0: 43f5 46bd c87f 863d 3c8f 443d f683 87bd
0.026521593 0.023701329 -0.008588932 -0.023730269 0.039483152 -0.07756138 -0.07009001 -0.057109475
-0.0039300416 0.061327394 -0.04955449 0.043093737 -0.021105407 -0.0117656 0.00052516855 0.021890018
-0.05165498 -0.008935269 -0.059652425 -0.0127689075 0.025471823 0.007685585 0.036281135 0.052180786
0.0042519956 -0.02254783 0.019015728 0.013748307 0.0038919384 0.06975026 0.035381116 -0.038790792
0.003523123 0.03705857 -0.060633752 0.01783832 -0.060650107 0.032087654 0.010492139 -0.00051110913
-0.0037162253 0.07301256 -0.0587726 0.015899682 -0.0012882492 -0.018382937 -0.0076215453 0.016613968
-0.027542733 0.008572553 -0.06622371 -0.000595176 -0.0502821 -0.022783555 -0.046949428 0.08203031
-0.06999567 -0.018483821 -0.058775898 0.07936369 0.065131135 0.057821926 -0.00024665712 0.0591294
0.04305855 0.06900444 0.031701237 -0.0507067 -0.045528967 0.0015210034 0.04630656 -0.043359894
-0.07428773 -0.026174735 0.0732357 0.011076186 0.041750252 -0.008485133 0.076839805 0.023062719
-0.04848011 0.072456524 0.07403548 0.012158838 -0.022558263 0.04605495 -0.003176373 -0.02906008
0.05702021 -0.028797511 0.0001400751 0.004314401 0.076031685 0.037314072 0.0166622 -0.011945383
-0.027388185 0.06826694 0.019104483 0.0565687 -0.03627988 -0.048856933 -0.0037861709 -0.054766826
0.06733017 -0.004497444 -0.014361367 -0.04440148 -0.04921133 0.07688912 -0.075380534 0.029897604
0.029293932 -0.053762466 0.04175676 0.04158512 0.040585656 -0.03004507 0.04800239 0.06931612
-0.03481373 -0.06476006 0.04406771 -0.07120666 -0.03456202 -0.0643764 -0.062236864 0.058259916
0.04306913 -0.049967583 0.0073176194 -0.02698637 0.03959564 0.009833739 -0.044498473 -0.04715459
0.066260554 -0.008411843 0.048748314 -0.07755427 -0.031673536 0.0049271015 0.07281058 -0.021101097
0.024776312 0.051417515 -0.047150377 -0.001110384 0.06961857 0.014338687 0.042558633 -0.00043864956
0.04190823 0.021386981 0.009373194 0.038379494 0.008310119 0.060659304 -0.06986012 -0.036804464
0.03722648 0.0491838 -0.0714213 0.07789486 0.009564039 0.07367903 -0.02622148 0.010216411
0.06636997 -0.0033908794 0.045499787 0.072011955 -0.036818292 -0.00551287 -0.034293145 -0.0007854437
0.03689587 0.06305441 0.06367753 -0.007331595 -0.03855722 -0.018709917 -0.033016294 -0.061509177
-0.01797108 -0.050965786 0.03925541 -0.07691082 0.069076136 0.027340634 -0.0641964 0.07019373
-0.07689366 -0.034415483 0.025411777 -0.019270822 -0.06131547 -0.022262113 0.07452334 0.025951177
0.016091917 -0.025301173 -0.011497902 0.0027743564 -0.011711842 0.07562665 -0.050092526 -0.061067786
-0.07389656 0.039230485 0.011828599 -0.07081941 0.06433945 -0.028382592 0.041592754 -0.066367574
-0.043022405 0.039422207 0.0149391955 0.041963276 0.06953691 0.014926936 0.04926432 0.0045407945
-0.039206773 -0.06308171 -0.003052216 0.0012705338 0.025276229 0.027859217 0.07695124 0.06779484
0.07855993 -0.0017274569 -0.003250979 0.058323767 -0.036583506 -0.007924324 0.009164192 -0.021650832
-0.045782264 -0.035322774 -0.07766623 -0.006028383 -0.0039860774 0.043264437 0.0065269414 -0.03995052
0.031439077 0.021563483 0.033634916 0.035958204 -0.048573744 0.06567341 0.04798816 -0.066169664

weight f4 [80, 80, 2]
00000000: d230 dd3c 6dab c53c 8843 0fbc 37e9 c5bc
00000010: 2ca5 243d 47b7 a1bd 5923 92bd ae25 6ebd
00000020: 471b 83bb 67bc 7f3d 8fa4 4ebd 8eb3 333d
00000030: 0405 b0bc 3240 44bc 4a28 0c3a 3290 b63c
00000040: e166 57bd 6c0a 15bc 56c0 78bd 69fc 54bc
00000050: 846f d43c 2832 003c f24a 173d 3098 593d
00000060: d3d8 8d3b a70c bcbc 7497 9e3c 8952 653c
00000070: dfd5 813b 006e 913d 288a 133d 10c2 21bd
00000080: 3d10 6b3b e088 1a3d edd7 7cbd a2c5 943c
00000090: 62e9 7cbd 4fce 053d 6602 2f3c ba67 08ba
000000a0: 7ff2 77bb 4b3b 983d 1b15 75bd 8e9a 843c
000000b0: 8ae7 abba 6a50 99bc 6641 febb 968f 8a3c
000000c0: 00b5 e5bc 97fd 0e3c ab13 8abd 4dd7 1eba
000000d0: 4cad 51bd f003 bebc 98c7 43bd 9f08 ab3d
000000e0: fff0 91bd cf27 9abc 9f18 75bd 4879 a53d
000000f0: 7ecc 873d 3c1e 713d f4a7 83b9 fe91 763d
00000100: ff8d 333d eadf 8f3d cd31 043d 9172 53bd
00000110: 38db 3dbd 99f6 ca3a 5219 413d afcf 34bd
00000120: eee3 9abd 444c dabc 65b2 983d 55c0 383c
00000130: 5b19 2e3d 4c88 0dbc 2136 a03d f757 c03c
00000140: a129 4abd 8112 973d 4a5d 9a3d 5bcf 4a3c
00000150: ee22 bcbc b80c 403d 9eed 53bb 9c5c f2bc
00000160: 63c6 6d3d 032c f0bc 8d88 1539 c8ed 8f3b
00000170: c986 9e3d a199 1b3d 91f6 8a3c e23f 47bc
00000180: 096b e4bc 4456 8e3d f354 9f3c 64e4 6b3d
00000190: 9b49 17bd e6bb 4bbd 319d 7cbb d960 64bd
000001a0: 4062 8c3d ff08 96bb 5b8c 6fbc 9a27 39bd
000001b0: 3a36 4dbd 7450 a03d 3a2b 9dbd c358 f93c
000001c0: e44f f43c ab30 60bd 4d20 2e3d 1369 2d3d
000001d0: 1f3e 293d 9b93 fabc a72b 483d 4786 903d
000001e0: 752c 11bd 6d06 87bd 4bc3 373d 6077 94bd
000001f0: c11f 10bd a539 86bd a4c3 81bd cdf1 723d
00000200: 4a99 333d 8b5d 50bd d11d f43b 2411 e1bc
00000210: 421d 253d f906 243c 258f 39bd 9ca2 44bd
00000220: 5527 8a3d 584f 0cbc f247 4b3d 7cb3 a1bd
00000230: 3a14 04bd 5b5e a43b 7ccf 973d d0fb afbc
00000240: 91a2 ce3c 6169 563d 1d9e 44bd 892b 94ba
00000250: b627 913d 832b 6f3c 5278 313d 5e22 eab9
00000260: 00c2 2e3d 305e b23c 6658 1c3c fe0a 203d
00000270: f99c 0a3c 34f3 7c3d a5a8 91bd 9d79 19bd
00000280: b114 193d 4940 4a3d f7d8 92bd 5a28 a03d
00000290: a550 1d3c 557d 973d 3ca7 d7bc ae0b 283c
000002a0: 2c76 883d cf19 5fbb 161a 3b3d db0f 943d
000002b0: fd66 17bd a25b b5bb be04 0dbd 0db6 4eba
000002c0: a8b8 173d 02a5 813d fdec 823d 5a30 f1bb
000002d0: 938d 1ebd 3de0 99bc 96c4 07bd 55ef 7cbd
000002e0: adcc 93bc 3394 51bd 916c 213d 6722 9ebd
000002f0: 9306 8e3d 86db e03c 1afe 83bd d352 903d
00000300: 5e19 9ebd 8785 0dbd 78fe d03c 2e7d 9ebc
00000310: 6a23 7cbd 1b17 b7bc bc39 993d 226e d53c
00000320: 3f58 843c 9a15 d0bc d51f 3dbc 7d89 363b
00000330: b3a4 40bc 787e 9b3d e9fc 4dbd ad1e 7bbd
00000340: d4ef 97bd 5452 213d 5890 423c 279c 91bd
00000350: 6549 843d 496d e9bc 1d09 2b3d e974 88bd
00000360: 1fea 30bd 281c 223d 92ba 753c 2a8f 2c3d
00000370: 1bf9 8e3d f286 753c 0c95 4a3d 1f61 953b
00000380: 5e39 21bd 61b3 81bd 94d1 48bb 1f30 a73a
00000390: 15e1 cf3c 5c1f e53c ad37 9e3d 2864 8b3d
000003a0: 6a86 a13d 5d50 e3ba 6ae5 55bb 05d6 6f3d
000003b0: d46f 16bd 1058 02bc f3bc 163c 1a10 b2bc
000003c0: 7443 3cbd a440 11bd 03b0 9fbd 1e51 c6bb
000003d0: 7921 83bb e9e8 313d d2b7 d63b 5148 24bd
000003e0: 3c48 013d 3258 b13c d14f 0a3d 91dd 133d
000003f0: 12be 47bd 8807 873d a055 453d bd0c 88bd
0.027000818 0.024129594 -0.008744128 -0.024159057 0.040196583 -0.078962855 -0.07135648 -0.058141403
-0.0040010544 0.062435534 -0.050449904 0.04387241 -0.021486767 -0.011978196 0.000534658 0.022285555
-0.052588347 -0.009096723 -0.0607303 -0.012999632 0.025932081 0.007824458 0.036936708 0.053123653
0.004328826 -0.022955252 0.019359328 0.013996729 0.003962263 0.07101059 0.036020428 -0.039491713
0.0035867833 0.03772819 -0.06172936 0.018160645 -0.06174601 0.032667454 0.010681724 -0.0005203445
-0.0037833748 0.07433184 -0.05983458 0.016186979 -0.0013115269 -0.018715102 -0.007759261 0.01691417
-0.02804041 0.008727453 -0.067420326 -0.0006059304 -0.05119066 -0.023195237 -0.04779777 0.08351254
-0.071260445 -0.01881781 -0.059837934 0.08079773 0.06630801 0.058866724 -0.00025111402 0.060197823
0.04383659 0.0702513 0.032274056 -0.05162293 -0.04635164 0.0015484869 0.047143288 -0.044143375
-0.075630054 -0.026647694 0.07455901 0.011276324 0.04250465 -0.008638453 0.07822824 0.023479445
-0.049356107 0.07376576 0.07537325 0.012378539 -0.022965875 0.04688713 -0.0032337676 -0.029585175
0.058050524 -0.029317861 0.00014260616 0.0043923594 0.07740552 0.03798831 0.016963275 -0.012161227
-0.02788307 0.069500476 0.019449687 0.057590857 -0.03693543 -0.04973974 -0.0038545842 -0.055756424
0.06854677 -0.004578709 -0.014620866 -0.045203783 -0.050100543 0.07827845 -0.076742604 0.030437833
0.029823251 -0.054733913 0.042511273 0.042336535 0.04131901 -0.030587962 0.048869755 0.07056861
-0.03544279 -0.065930225 0.04486398 -0.072493315 -0.035186533 -0.065539636 -0.063361436 0.05931263
0.04384736 -0.05087046 0.0074498435 -0.027473994 0.040311106 0.010011428 -0.04530253 -0.04800664
0.06745783 -0.008563839 0.04962916 -0.07895562 -0.032245852 0.005016131 0.074126214 -0.021482378
0.025224002 0.05234659 -0.04800235 -0.0011304478 0.070876524 0.014597776 0.043327637 -0.00044657564
0.04266548 0.021773428 0.00954256 0.039072983 0.008460277 0.061755374 -0.071122445 -0.037469495
0.03737325 0.049377713 -0.07170289 0.078201964 0.009601747 0.07396952 -0.02632486 0.010256691
0.066631645 -0.0034042483 0.045679174 0.07229587 -0.03696345 -0.005534605 -0.03442835 -0.0007885404
0.037041336 0.06330301 0.06392858 -0.0073605003 -0.038709234 -0.018783683 -0.033146463 -0.061751682
-0.018041933 -0.051166724 0.039410178 -0.077214055 0.06934848 0.027448427 -0.064449504 0.070470475
-0.07719682 -0.03455117 0.025511965 -0.0193468 -0.06155721 -0.022349885 0.07481715 0.026053492
0.01615536 -0.025400925 -0.011543234 0.0027852945 -0.011758017 0.075924814 -0.050290022 -0.06130855
-0.074187905 0.039385155 0.011875235 -0.07109862 0.064593114 -0.028494494 0.041756738 -0.06662924
-0.043192025 0.039577633 0.014998095 0.04212872 0.06981107 0.014985787 0.04945855 0.004558697
-0.03936135 -0.06333042 -0.0030642496 0.001275543 0.025375882 0.027969055 0.07725463 0.06806213
0.078869656 -0.0017342676 -0.0032637962 0.058553714 -0.03672774 -0.007955566 0.009200322 -0.021736193
-0.045962766 -0.035462037 -0.077972434 -0.0060521504 -0.004001793 0.04343501 0.006552675 -0.04010803
0.03156303 0.0216485 0.033767525 0.036099974 -0.04876525 0.06593233 0.04817736 -0.06643055

bias f4 [80]
00000000: d242 2cbd 9b03 6ebd e245 533d 02ab 7a3d
00000010: 3aad 7b3d 5613 a93c 3865 cb3c d308 37bc
00000020: 3af2 873d aae4 5e3d 087d a13c dbdc 293d
00000030: 3a12 5c3c c41d 49bd ac71 7f3b 2df6 91bc
00000040: 1da3 3abd 22af 843d 28e6 613c 0fb3 8abd
00000050: a78d 373d 9f82 3bbd ae88 f33c 861c 98bd
00000060: 5c17 53bb a43a cdbc 8528 5e3d f6fc 12bd
00000070: 602f 50bd a0c9 87bd 321b 203d 2247 8a3d
00000080: 8a9e 0bba 4b7a d93b d944 39bd 824e 52bd
00000090: 6dc8 2bbd 4e3e 053d ba1a b4bc c61b 0fbd
000000a0: 456a 97bc 3ba3 743d f832 873c a09c cfbb
000000b0: c933 41bd 5234 19bc 4ced 79bd d51c 93bd
000000c0: 8860 fc3c a37d a63c d446 4fbc 404b 75bb
000000d0: e091 c7ba f69e 21bd 7ffe 56bd 7256 4a3d
000000e0: 784b 1cbc 88a7 3ebc f938 1e3d 568f a3bd
000000f0: fffe 32bd 7c98 b5bc e02b 01bd 550d 0c3d
00000100: 18c0 803c d1e0 eb3c 4fac e2bc 1eae b1bc
00000110: 2212 42bd 90c4 ec3b 5559 fdbc 2854 93bd
00000120: c279 aabc b799 853d d210 34bd 28dd 093d
00000130: 32a7 3d3b a134 a03d adfe 403d 28c1 64bd
-0.042055912 -0.058108907 0.051580317 0.061198242 0.0614445 0.020639103 0.024828538 -0.011171537
0.06637998 0.05441729 0.01971294 0.04147039 0.01343208 -0.049100652 0.0038977666 -0.017817581
-0.045565713 0.064787164 0.013787784 -0.06772434 0.044812825 -0.045778867 0.02972826 -0.074273154
-0.0032209968 -0.025052376 0.05423786 -0.035885774 -0.05082643 -0.06630254 0.039088435 0.06751849
-0.00053260534 0.006636893 -0.045231674 -0.051344402 -0.041939188 0.03253012 -0.0219854 -0.034938596
-0.01848329 0.05972598 0.016503796 -0.00633581 -0.047168527 -0.009350853 -0.06101732 -0.07183234
0.030807748 0.02032358 -0.012651164 -0.0037428886 -0.0015225969 -0.039458238 -0.0524888 0.049398847
-0.0095394775 -0.011636622 0.038628552 -0.079863235 -0.043700214 -0.022167437 -0.031535983 0.034192402
0.015716597 0.028793724 -0.027670054 -0.02168947 -0.047380574 0.0072255805 -0.030926386 -0.07193786
-0.020810012 0.065234594 -0.043961354 0.033658177 0.0028938768 0.07822538 0.047117878 -0.05584827

weight_g f4 [80, 1, 1]
00000000: c12a 153f 86d7 173f 21c7 113f f30b 0e3f
00000010: 5616 1b3f 03ec 1c3f 10ef 123f 9e91 163f
00000020: 06c3 0f3f 7465 153f 73e6 083f ce19 113f
00000030: 9495 103f 0d09 0b3f 05d3 183f bbd4 133f
00000040: 2ce9 123f e885 193f 9096 1a3f 0f7a 0f3f
00000050: c27f 0e3f 65af 123f 39d7 153f 4fee 0a3f
00000060: 51e2 093f b9a6 0d3f 073f 0f3f b843 133f
00000070: 8f84 153f 40ae 113f 5f33 113f e772 153f
00000080: 7b7b 183f 34b9 163f 74ea 153f a95a 153f
00000090: e7f5 163f 2b58 133f 6f6f 123f 67a1 113f
000000a0: 6faf 183f 25e3 173f 7285 1a3f ade9 063f
000000b0: 38ae 0e3f c0c9 103f f885 163f e28e 113f
000000c0: b809 123f 55ec 193f cd07 103f d920 183f
000000d0: 1ccc 153f 7136 173f b25d 173f df0b 103f
000000e0: b0a1 163f 991e 183f c33f 193f 8f3c 193f
000000f0: 93c6 183f cf83 143f 4300 0f3f 3462 093f
00000100: b18c 1a3f ced7 0d3f 0075 183f 48df 193f
00000110: 47dc 113f 0dc6 173f 0dfa 1c3f 6671 133f
00000120: 84bc 153f 78aa 163f ef21 133f 9f8a 163f
00000130: f525 203f d910 0f3f 13dc 1b3f 322c 143f
0.5826836 0.5931324 0.5694447 0.55486983 0.60580957 0.61297625 0.5739603 0.58815944
0.5615696 0.5835793 0.5347664 0.5668 0.5647824 0.54310685 0.5969699 0.57746476
0.5738704 0.5996995 0.6038599 0.5604562 0.5566369 0.5729888 0.5853153 0.5426988
0.53860956 0.55332524 0.5595555 0.57525206 0.58405393 0.5690651 0.5671901 0.5837845
0.59563416 0.5887635 0.5856087 0.5834146 0.5896897 0.5755641 0.57201284 0.56886905
0.5964269 0.5933097 0.6035987 0.5270031 0.55734587 0.56557846 0.5879817 0.56858647
0.5704608 0.6012624 0.56261903 0.5942512 0.5851457 0.59067446 0.5912734 0.56268114
0.58840466 0.5942169 0.5986292 0.5985803 0.59678 0.58013624 0.55859774 0.5366547
0.6037093 0.55407417 0.5955353 0.60106325 0.5697674 0.59286577 0.6131905 0.5759491
0.58490777 0.58853865 0.57473654 0.5880527 0.6255792 0.5588508 0.6088268 0.57879937
