checkpoints/trained_generator_TCNGAN_net_1_epoch_1.pth (torch, 643190 bytes, 31 tensors)

bias f4 [80]
-0.9718239 0.8847227 0.7253612 -0.83047974 -0.7800194 0.18259227 -0.819989 0.017485907
0.25953758 0.53845865 0.8699657 0.15469566 0.9741985 0.71968746 -0.07860553 -0.9516025
0.07031497 0.27933598 -0.23125067 -0.17599833 -0.44925314 0.95289254 -0.8420911 0.53706354
0.24033338 -0.2031859 0.37960494 0.81805253 -0.39661437 0.8135048 0.18545899 -0.6177903
0.38548866 0.65055376 -0.18220446 -0.9995376 -0.07543858 -0.73744106 0.23025785 -0.9038116
0.6255749 -0.106336944 -0.59392595 0.9625697 -0.5788268 -0.34043205 0.92912465 0.9038212
-0.39546525 0.14369552 0.7501737 0.6298993 0.7286735 -0.030050112 0.34166077 0.8345778
-0.37520078 0.47898516 0.19396111 0.29667106 0.082399964 0.8387031 0.54017687 0.9903424
0.7391735 -0.119526185 -0.78847396 0.38923594 -0.16209152 0.43225387 -0.9073305 -0.19522715
-0.9022469 -0.9039544 0.018954083 -0.5412506 0.17005178 0.852498 0.39414293 -0.15326633
00000000: 73c9 78bf 307d 623f 46b1 393f 529a 54bf
00000010: 5aaf 47bf 78f9 3a3e cdea 51bf 9b3e 8f3c
00000020: 1ce2 843e 6dd8 093f 12b6 5e3f 8a68 1e3e
00000030: 1365 793f 703d 383f f0fb a0bd 399c 73bf
00000040: 4c01 903d 2005 8f3e facc 6cbe e838 34be
00000050: 8204 e6be c4f0 733f 4893 57bf ff7c 093f
00000060: f419 763e f70f 50be 945b c23e e46b 513f
00000070: 0a11 cbbe da41 503f f6e8 3d3e 8127 1ebf
00000080: c55e c53e b18a 263f ce93 3abe b2e1 7fbf
00000090: 8b7f 9abd f0c8 3cbf b7c8 6b3e 3260 67bf
000000a0: ad25 203f 2fc7 d9bd 880b 18bf f86a 763f
000000b0: fe2d 14bf 1c4d aebe 1ddb 6d3f d360 673f
000000c0: 6c7a cabe eb24 133e 620b 403f 1541 213f
000000d0: 598a 3a3f a72b f6bc 29ee ae3e e4a6 553f
000000e0: 511a c0be 8b3d f53e be9d 463e 45e5 973e
000000f0: 50c1 a83d 3fb5 563f 0849 0a3f 1487 7d3f
00000100: 793a 3d3f 25ca f4bd 6ed9 49bf ef49 c73e
00000110: 52fb 25be 6150 dd3e d046 68bf a0e9 47be
00000120: a7f9 66bf 8e69 67bf 9845 9b3c 668f 0abf
00000130: 0e22 2e3e 4f3d 5a3f 1acd c93e d9f1 1cbe

weight_g f4 [80, 1, 1]
0.9410354 -0.0009134951 0.43922323 0.5137252 0.5049325 0.90396845 0.779787 0.8874226
0.023730975 0.10762095 0.027203694 0.3687516 0.096180856 0.4297032 0.6233498 0.50423515
0.37215742 0.95094836 0.8184455 0.048903823 0.5583388 0.8940008 0.21098268 0.9133513
0.58678186 0.942908 0.43052238 0.9894327 0.23892124 0.7449876 0.13916396 0.53396523
0.6436056 0.46893042 0.48843515 0.74674606 0.8268245 0.041467786 0.60774034 0.1608069
0.76747596 0.38253385 0.52855706 0.7995328 0.99088544 0.2689326 0.13579075 0.2270096
0.06109202 0.62293166 0.21032216 0.5633967 0.7826525 0.13618799 0.99711704 0.5627894
0.675672 0.79090655 0.47448298 0.47148648 0.7008254 0.18132961 0.010589286 0.53219867
0.2888223 0.6278617 0.561472 0.49031198 0.79926175 0.48330206 0.7075889 0.006419301
0.7750181 0.88076425 0.18141675 0.9924061 0.25509644 0.73429984 0.09636545 0.59323394
00000000: b2e7 703f 9e77 6fba dee1 e03e 7f83 033f
00000010: 4243 013f 7a6a 673f 1fa0 473f 212e 633f
00000020: 7667 c23c 5f68 dc3d 48da de3c 02cd bc3e
00000030: 78fa c43d 0f02 dc3e da93 1f3f 8e15 013f
00000040: 6b8b be3e 5a71 733f a585 513f 604f 483d
00000050: 4bef 0e3f 3ddd 643f d80b 583e 64d1 693f
00000060: 5637 163f 6b62 713f 6e6d dc3e 764b 7d3f
00000070: c5a7 743e 82b7 3e3f ff80 0e3e f2b1 083f
00000080: 56c3 243f a617 f03e 2c14 fa3e c02a 3f3f
00000090: c5aa 533f 20da 293d df94 1b3f 90aa 243e
000000a0: 4e79 443f 7adb c33e 844f 073f 2eae 4c3f
000000b0: abaa 7d3f 89b1 893e bb0c 0b3e 3475 683e
000000c0: a03b 7a3d 7378 1f3f b15e 573e c43a 103f
000000d0: ea5b 483f dd74 0b3e 1043 7f3f f712 103f
000000e0: d7f8 2c3f da78 4a3f 6fef f23e ad66 f13e
000000f0: 4b69 333f 78ae 393e af7e 2d3c 2c3e 083f
00000100: 84e0 933e 8bbb 203f a1bc 0f3f 2c0a fb3e
00000110: 6b9c 4c3f 5e73 f73e 8c24 353f 0059 d23b
00000120: 9667 463f c479 613f 50c5 393e 530e 7e3f
00000130: 009c 823e 13fb 3b3f 405b c53d 2ede 173f

weight_v f4 [80, 1, 1]
-0.9410478 -0.0030109882 0.4359243 0.5177038 0.50106275 -0.9039656 -0.77980673 0.89048994
0.023910211 0.107758164 -0.031059027 -0.3687558 -0.0923537 0.4257217 -0.6235072 -0.50225484
-0.37217104 -0.95109075 0.8223957 -0.048903823 -0.56207025 -0.8940258 -0.21098268 -0.9133524
0.5907525 0.93892896 -0.43054277 0.9862224 0.2350992 0.74498045 0.13920033 0.5378014
-0.64359725 -0.4689622 -0.48845327 -0.74676883 -0.826867 -0.041467786 -0.60781485 0.1608069
0.76975113 -0.3826491 0.53236556 0.8035191 -0.9909073 -0.268973 0.13968861 -0.22721517
-0.06109202 -0.6229017 0.21427564 0.56351864 0.78661525 -0.13615215 -0.997156 -0.563009
-0.6756774 -0.7909385 -0.47845912 0.47542787 -0.70094514 -0.18136156 -0.010580063 0.53370976
0.2888161 -0.63164264 0.5654181 -0.49426723 0.79902923 -0.48332667 -0.7076105 0.006419301
-0.77508295 -0.88448286 -0.18144594 -0.99634135 -0.2550701 0.73823714 -0.09561567 0.59326375
00000000: 82e8 70bf 0054 45bb 7831 df3e 3c88 043f
00000010: a645 003f 4a6a 67bf 6aa1 47bf 26f7 633f
00000020: 59df c33c 50b0 dc3d 806f febc 8fcd bcbe
00000030: f023 bdbd 32f8 d93e 2b9e 1fbf c693 00bf
00000040: 348d bebe af7a 73bf 8688 523f 604f 48bd
00000050: d6e3 0fbf e0de 64bf d80b 58be 76d1 69bf
00000060: 8e3b 173f a65d 703f 1a70 dcbe 1279 7c3f
00000070: d8bd 703e 0ab7 3e3f 888a 0e3e 5aad 093f
00000080: cac2 24bf d01b f0be 8c16 fabe 3e2c 3fbf
00000090: 8ead 53bf 20da 29bd c199 1bbf 90aa 243e
000000a0: 690e 453f 95ea c3be 1c49 083f 6eb3 4d3f
000000b0: 1aac 7dbf d4b6 89be 880a 0f3e 18ab 68be
000000c0: a03b 7abd 7c76 1fbf 136b 5b3e c242 103f
000000d0: 9e5f 493f 786b 0bbe 9e45 7fbf 5c21 10bf
000000e0: 32f9 2cbf f27a 4abf 98f8 f4be 486b f33e
000000f0: 2471 33bf d8b6 39be 0058 2dbc 34a1 083f
00000100: b4df 933e 55b3 21bf 3ebf 103f 9810 fdbe
00000110: 2e8d 4c3f 9876 f7be f625 35bf 0059 d23b
00000120: d66b 46bf 786d 62bf f7cc 39be 3a10 7fbf
00000130: 8c98 82be 1cfd 3c3f 26d2 c3bd 22e0 173f

weight f4 [80, 1, 1]
-0.9410354 0.0009134951 0.4392232 0.5137252 0.5049325 -0.9039685 -0.779787 0.8874226
0.023730975 0.10762095 -0.027203694 -0.3687516 -0.09618085 0.4297032 -0.6233498 -0.50423515
-0.37215742 -0.95094836 0.8184455 -0.048903823 -0.5583388 -0.8940008 -0.21098268 -0.9133513
0.58678186 0.94290805 -0.43052238 0.9894327 0.23892124 0.74498767 0.13916396 0.53396523
-0.6436056 -0.46893042 -0.48843515 -0.74674606 -0.8268245 -0.041467786 -0.60774034 0.1608069
0.76747596 -0.38253385 0.52855706 0.7995328 -0.99088544 -0.2689326 0.13579075 -0.2270096
-0.06109202 -0.62293166 0.21032216 0.5633967 0.7826525 -0.13618799 -0.99711704 -0.5627894
-0.675672 -0.79090655 -0.47448298 0.47148648 -0.7008254 -0.18132961 -0.010589287 0.53219867
0.2888223 -0.6278617 0.561472 -0.49031198 0.79926175 -0.48330206 -0.7075889 0.006419301
-0.7750181 -0.88076425 -0.18141675 -0.9924061 -0.25509644 0.73429984 -0.09636545 0.59323394
00000000: b2e7 70bf 9e77 6f3a dde1 e03e 7f83 033f
00000010: 4243 013f 7b6a 67bf 1fa0 47bf 212e 633f
00000020: 7667 c23c 5f68 dc3d 48da debc 02cd bcbe
00000030: 77fa c4bd 0f02 dc3e da93 1fbf 8e15 01bf
00000040: 6b8b bebe 5a71 73bf a585 513f 604f 48bd
00000050: 4bef 0ebf 3ddd 64bf d80b 58be 64d1 69bf
00000060: 5637 163f 6c62 713f 6e6d dcbe 764b 7d3f
00000070: c5a7 743e 83b7 3e3f ff80 0e3e f2b1 083f
00000080: 56c3 24bf a617 f0be 2c14 fabe c02a 3fbf
00000090: c5aa 53bf 20da 29bd df94 1bbf 90aa 243e
000000a0: 4e79 443f 7adb c3be 844f 073f 2eae 4c3f
000000b0: abaa 7dbf 89b1 89be bb0c 0b3e 3475 68be
000000c0: a03b 7abd 7378 1fbf b15e 573e c43a 103f
000000d0: ea5b 483f dd74 0bbe 1043 7fbf f712 10bf
000000e0: d7f8 2cbf da78 4abf 6fef f2be ad66 f13e
000000f0: 4b69 33bf 78ae 39be b07e 2dbc 2c3e 083f
00000100: 84e0 933e 8bbb 20bf a1bc 0f3f 2c0a fbbe
00000110: 6b9c 4c3f 5e73 f7be 8c24 35bf 0059 d23b
00000120: 9667 46bf c479 61bf 50c5 39be 530e 7ebf
00000130: 009c 82be 13fb 3b3f 405b c5bd 2ede 173f

weight f4 [80, 1, 1]
0.23998195 -0.903495 -0.53748125 0.28086153 -0.9885718 -0.25923002 -0.6071338 -1.0128325
-0.16305429 0.02003807 0.029400013 -1.0996855 0.81210834 0.2628376 -0.42739266 0.3847808
1.0775571 0.22964951 1.36632 -0.016490674 -0.0022526772 -0.20092842 0.46124512 0.42076597
-0.9728889 0.2644497 0.7329081 0.48447293 0.41019195 0.18328069 0.72114694 -0.08221698
0.58107686 0.63659495 0.41791606 -0.555482 0.405118 0.6788321 0.22011533 -0.2764147
-0.12655614 0.33548582 0.96720994 0.8317884 -0.46213165 0.37180477 0.8250067 0.4634743
-0.045211624 0.6243809 -0.23082872 -0.30174705 -0.28858608 0.1982662 0.61830705 -0.1089426
-0.20738158 -1.1649384 -0.60385895 -0.80775666 0.41118369 -0.25254586 -0.29368332 -0.97650206
-0.58676755 -0.03664906 -0.37785742 0.10006129 0.2126154 0.657632 0.18510447 -0.54833615
0.2165055 0.36118233 0.103347205 0.29334232 0.8377774 0.046870265 0.17759825 0.25768027
00000000: d4bd 753e 734b 67bf 5f98 09bf 15cd 8f3e
00000010: 0b13 7dbf ccb9 84be 1f6d 1bbf 7fa4 81bf
00000020: b4f7 26be e126 a43c 4cd8 f03c 7fc2 8cbf
00000030: 55e6 4f3f a692 863e 36d3 dabe fd01 c53e
00000040: 64ed 893f 3e29 6b3e 93e3 ae3f 7317 87bc
00000050: a7a1 13bb 2ec0 4dbe 5228 ec3e a36e d73e
00000060: 3f0f 79bf f365 873e de9f 3b3f d60c f83e
00000070: ae04 d23e efad 3b3e 169d 383f 6061 a8bd
00000080: 74c1 143f e3f7 223f 18f9 d53e 1134 0ebf
00000090: a06b cf3e f1c7 2d3f ea65 613e 3a86 8dbe
000000a0: ef97 01be ccc4 ab3e 129b 773f 16f0 543f
000000b0: 859c ecbe 325d be3e a433 533f 814c ed3e
000000c0: d32f 39bd 6dd7 1f3f 5d5e 6cbe 977e 9abe
000000d0: 8ec1 93be 4b06 4b3e 5f49 1e3f 4c1d dfbd
000000e0: d65b 54be b41c 95bf 8096 1abf 24c9 4ebf
000000f0: ab86 d23e b14d 81be a95d 96be 0afc 79bf
00000100: 6636 16bf 531d 16bd 8776 c1be efec cc3d
00000110: dab7 593e 925a 283f 078c 3d3e c25f 0cbf
00000120: 9eb3 5d3e e4ec b83e b3a7 d33d f730 963e
00000130: 9478 563f 09fb 3f3d 51dc 353e abee 833e

bias f4 [80]
0.18713754 -0.11172232 -0.9005869 0.0738978 0.87136537 -0.48438936 0.24075826 -0.9366643
0.96006423 0.08349262 0.95414674 0.919018 0.9472362 -0.8933081 0.33416277 -0.33315593
-0.18093698 -0.031110238 -0.8117396 -0.09776175 0.99555826 -0.45121437 -0.08359872 0.21746255
0.13679653 -0.76918036 0.6398162 -0.83048975 -0.43954343 -0.20352495 0.7326628 0.68941224
0.38961238 -0.9758264 -0.37209478 0.36010307 -0.25702417 -0.20693175 0.35988364 0.44830889
-0.90280896 0.10446467 -0.67725134 -0.7629684 -0.44081286 -0.98170114 0.23102982 0.43726665
-0.02130169 0.18979633 -0.16525917 0.79429656 0.54476017 -0.48779696 -0.44196337 0.65936315
0.42930394 0.7141969 0.7869302 -0.9656953 -0.82498854 0.47909978 -0.22824055 0.28869358
0.56727546 -0.19376433 0.550921 -0.43531752 -0.5146922 0.8060934 0.7226339 -0.5845639
0.67257977 -0.310897 0.944168 0.29648322 0.38166314 -0.043561187 0.29492196 0.3409091
00000000: fca0 3f3e acce e4bd dd8c 66bf bb57 973d
00000010: cd11 5f3f e201 f8be 5589 763e 3bc9 6fbf
00000020: c5c6 753f 2efe aa3d f642 743f c344 6b3f
00000030: 127e 723f d7af 64bf 6217 ab3e 6a93 aabe
00000040: 8b47 39be e6da febc 2bce 4fbf 5037 c8bd
00000050: e8dc 7e3f 9205 e7be ce35 abbd 81ae 5e3e
00000060: 6414 0c3e 01e9 44bf ffca 233f fa9a 54bf
00000070: d60b e1be d868 50be ca8f 3b3f 527d 303f
00000080: 467b c73e c2cf 79bf 3583 bebe 6e5f b83e
00000090: ac98 83be ebe5 53be ab42 b83e be88 e53e
000000a0: 7d1e 67bf 93f1 d53d 5860 2dbf e651 43bf
000000b0: 39b2 e1be c450 7bbf 1593 6c3e 6ae1 df3e
000000c0: e280 aebc f859 423e b339 29be 0557 4b3f
000000d0: 6775 0b3f 86c0 f9be 0649 e2be 06cc 283f
000000e0: bacd db3e 9cd5 363f 4274 493f cf37 77bf
000000f0: 7332 53bf 914c f53e e4b7 69be a5cf 933e
00000100: f738 113f 286a 46be 2909 0d3f f0e1 debe
00000110: dec2 03bf 235c 4e3f 89fe 383f fba5 15bf
00000120: 302e 2c3f e42d 9fbe feb4 713f a6cc 973e
00000130: 5a69 c33e 376d 32bd 0300 973e a38b ae3e

bias f4 [80]
0.0077447416 -0.07667743 0.07027216 0.01980772 0.014816461 0.053382874 -0.03267357 0.0046161907
0.054746922 -0.041973095 0.06008881 0.0040852427 -0.035463076 0.025912166 0.040845092 0.0726936
0.050653532 -0.04838482 0.03467291 0.013436265 -0.0076299123 0.058909364 0.00032330304 0.06725744
-0.035945553 0.07161064 -0.009979283 0.052443486 0.0720755 0.01150448 -0.06301543 0.062026788
-0.08244839 0.06588789 -0.03600228 0.05734246 -0.06819446 -0.049758576 -0.05716373 0.070688434
0.034619115 0.05257382 -0.04886715 0.0067743133 -0.03430369 -0.03932821 0.058029406 0.0055728513
-0.059307307 0.040384285 -0.0010315105 0.023577284 -0.033415515 0.047612913 -0.07933851 -0.060541213
0.07094809 -0.04845292 0.07749471 0.07043827 -0.049049612 0.07349342 0.04710004 -0.06687791
-0.07303928 0.037018508 -0.049200244 -0.07154994 0.0062254677 0.01769152 -0.022677114 0.0064265504
-0.053231183 -0.00017729262 0.059477516 0.034454525 -0.04017482 -0.036642853 0.07520937 0.0326176
00000000: 9ac7 fd3b 0e09 9dbd daea 8f3d cd43 a23c
00000010: bec0 723c 00a8 5a3d b9d4 05bd 6a43 973b
00000020: 4f3e 603d fbeb 2bbd af1f 763d 80dd 853b
00000030: bb41 11bd c045 d43c 2f4d 273d 62e0 943d
00000040: 147a 4f3d 292f 46bd 2e05 0e3d c823 5c3c
00000050: 5804 fabb f24a 713d 0081 a939 45be 893d
00000060: a53b 13bd 99a8 923d 2680 23bc fbce 563d
00000070: 529c 933d 497d 3c3c 3c0e 81bd cd0f 7e3d
00000080: b4da a8bd 3bf0 863d 2077 13bd eddf 6a3d
00000090: 89a9 8bbd a6cf 4bbd 8424 6abd 19c5 903d
000000a0: c6cc 0d3d a557 573d ec28 48bd 0ffb dd3b
000000b0: 0782 0cbd 9e16 21bd 3eb0 6d3d 779c b63b
000000c0: 38ec 72bd fe69 253d c033 87ba 2625 c13c
000000d0: b5de 08bd c205 433d 3b7c a2bd 10fa 77bd
000000e0: 3b4d 913d 9276 46bd 8cb5 9e3d f141 903d
000000f0: 3fe8 48bd b883 963d f9eb 403d 49f7 88bd
00000100: 9e95 95bd b8a0 173d 3286 49bd c688 92bd
00000110: 02ff cb3b ceed 903c 5bc5 b9bc d095 d23b
00000120: f108 5abd a0e7 39b9 b29e 733d 3020 0d3d
00000130: 5a8e 24bd d116 16bd 5f07 9a3d 089a 053d

weight_g f4 [80, 1, 1]
0.6010004 0.57742935 0.58393896 0.58199424 0.58774 0.6023977 0.592004 0.569887
0.55109096 0.60178596 0.5491563 0.6207996 0.57107294 0.55183816 0.58160025 0.58636624
0.6102071 0.5845112 0.58651865 0.57023865 0.57865477 0.5882825 0.6056829 0.5762118
0.58090705 0.5943395 0.5748682 0.5587328 0.5780483 0.58689445 0.56398976 0.61724776
0.59412503 0.5433524 0.563245 0.5643102 0.5640817 0.5764225 0.5670225 0.5987208
0.5415244 0.6016386 0.59649277 0.58677584 0.57728577 0.5589776 0.61406004 0.576848
0.5642795 0.6100342 0.5547228 0.5565404 0.5539274 0.56357723 0.56817394 0.5873787
0.5761411 0.5589356 0.5708348 0.6121873 0.5422022 0.59400636 0.5653876 0.5667442
0.5727397 0.54467714 0.54601073 0.5652771 0.579229 0.5700609 0.5861 0.5798683
0.58129287 0.58378196 0.55970234 0.5945257 0.56096053 0.5879182 0.56898844 0.5615942
00000000: 2adb 193f 69d2 133f 067d 153f 93fd 143f
00000010: 2176 163f bc36 1a3f 938d 173f 1de4 113f
00000020: 4c14 0d3f a50e 1a3f 8295 0c3f b9ec 1e3f
00000030: d631 123f 4445 0d3f c1e3 143f 191c 163f
00000040: 8836 1c3f 87a2 153f 1626 163f 29fb 113f
00000050: b822 143f af99 163f 090e 1b3f 9e82 133f
00000060: 53b6 143f a226 183f 902a 133f 1d09 0f3f
00000070: f9fa 133f b73e 163f a261 103f f303 1e3f
00000080: 9418 183f 2519 0b3f d330 103f a276 103f
00000090: a967 103f 6d90 133f 6328 113f c445 193f
000000a0: 58a1 0a3f fd04 1a3f c0b3 183f f136 163f
000000b0: 00c9 133f 2819 0f3f 0a33 1d3f 4fac 133f
000000c0: 9f74 103f 342b 1c3f 5002 0e3f 6f79 0e3f
000000d0: 30ce 0d3f 9946 103f d973 113f 735e 163f
000000e0: fc7d 133f 6716 0f3f 3b22 123f 4fb8 1c3f
000000f0: c3cd 0a3f cd10 183f 3ebd 103f 2616 113f
00000100: 129f 123f f66f 0b3f 5cc7 0b3f 00b6 103f
00000110: 5a48 143f 83ef 113f a60a 163f 4072 143f
00000120: 9ccf 143f bc72 153f a748 0f3f d632 183f
00000130: 1c9b 0f3f cf81 163f 3aa9 113f a3c4 0f3f

weight_v f4 [80, 80, 2]
0.04657999 0.06726688 0.0114140855 0.04523434 0.04551325 -0.04892506 0.046028037 -0.057784718
-0.017799808 -0.011658042 0.05471358 0.071019076 -0.05542435 0.012186295 0.05090086 -0.03575758
-0.05561737 -0.053813968 -0.034319445 -0.035440296 0.019610237 0.042235985 -0.037866972 0.07073021
-0.06924652 0.07561632 -0.036487635 -0.009807985 0.026681175 0.0637057 -0.06093463 0.03813386
-0.01331481 0.0034106674 -0.053398732 0.02988479 -0.044856753 0.03852335 0.025729984 -0.042297676
0.07018382 0.048298303 0.038686786 0.06924912 0.01062834 -0.01640024 -0.06755313 -0.011657931
0.014443535 0.025931004 0.059224635 -0.046556517 -0.00578502 -0.016810186 0.026834514 -0.021803314
0.059097286 -0.014560464 0.016309982 0.043755807 -0.030510167 0.015435677 -0.016799605 -0.04986951
-0.044105444 0.074519366 0.018804299 -0.06670097 -0.021494735 -0.03196019 0.039626967 0.06908848
-0.066851474 0.052630387 0.07183116 -0.07437596 -0.025527101 0.07008088 0.003470758 -0.048838295
-0.07754567 0.0012880125 0.037711393 -0.07255947 -0.018590828 0.012908296 0.02503081 -0.03406062
0.07725483 -0.047907706 -0.05388642 0.026366282 -0.059860624 0.0025057176 0.07639884 0.041348014
0.03949557 -0.06843694 -0.06032517 -0.0058568334 0.057505257 -0.01689927 -0.028664289 -0.06836651
0.03823904 0.056584362 -0.06078253 0.034205366 -0.028019633 0.017383503 -0.04706411 -0.051559776
0.045357484 -0.058721747 -0.030257758 0.07193957 -0.05212771 0.05544555 -0.0012561012 -0.06441794
-0.07548779 0.07318992 0.070018575 -0.068730846 0.004250571 0.03967573 -0.073786765 -0.0081791235
-0.055571362 -0.036581423 0.050119054 -0.02442978 0.03774132 -0.06949086 -0.055783957 -0.049353797
0.052182127 -0.0019271718 0.05575428 0.0050702654 0.078531295 0.021051671 -0.045568097 -0.050546613
0.019800762 0.050836828 -0.016083505 -0.056218352 0.07610798 0.0543426 0.07242475 -0.02625836
0.019202564 -0.061084457 -0.035125386 0.07643217 0.051902525 -0.049748138 0.030795923 0.0015656615
0.067327395 -0.0029379502 0.03178325 -0.047071606 -0.0318074 0.041897673 0.009157984 -0.05283924
0.07312408 -0.023917343 0.062434215 -0.07757339 -0.054600652 0.04320643 0.006535386 0.063358754
-0.030495033 0.023003522 -0.03694131 0.014160545 0.011093446 0.07613315 -0.007286242 -0.015512196
-0.057855066 0.044625595 0.070917524 -0.052620336 -0.07531543 -0.0105961105 0.04542672 -0.0063444963
-0.07893442 -0.03033439 0.044049144 0.0054024723 -0.061028466 -0.04160282 0.012345071 -0.0045960783
0.024090078 -0.02256625 0.0029922698 0.043392286 -0.045961928 -0.02840509 -0.05967446 0.004283836
-0.01563307 -0.075453356 0.068083495 0.009425461 0.0550405 0.051932048 0.04752964 -0.05016803
-0.010136469 -0.0340003 0.062519066 -0.06821447 -0.06667521 -0.037642192 -0.058365945 0.036363702
-0.0382422 0.065839514 -0.031395227 -0.011517594 0.021767024 -0.07151268 -0.07353102 0.0059565376
0.024579259 -0.067225635 0.040336475 -0.07533468 -0.04611148 0.04192149 0.05796561 0.025955806
0.06792884 0.011900792 -0.00095083256 0.06034733 -0.00052323466 0.06947859 0.07574977 -0.048024185
-0.020850899 -0.0290587 0.019035848 0.0043178056 0.063148215 -0.04347771 0.07287649 0.014505194
00000000: a9ca 3e3d 38c3 893d 2502 3b3c a547 393d
00000010: 1a6c 3a3d a565 48bd e587 3c3d abaf 6cbd
00000020: e7d0 91bc 5f01 3fbc 591b 603d 7372 913d
00000030: a504 63bd 07a9 473c 6c7d 503d 8a76 12bd
00000040: 0acf 63bd 096c 5cbd 8c92 0cbd d829 11bd
00000050: a6a5 a03c a4ff 2c3d 661a 1bbd 00db 903d
00000060: 1fd1 8dbd bbdc 9a3d 0f74 15bd acb1 20bc
00000070: 7b92 da3c 2278 823d 9796 79bd 4032 1c3d
00000080: 5c26 5abc 8185 5f3b a1b8 5abd f2d0 f43c
00000090: b7bb 37bd a9ca 1d3d b0c7 d23c 5440 2dbd
000000a0: 89bc 8f3d 71d4 453d 0976 1e3d 7cd2 8d3d
000000b0: 7d22 2e3c cc59 86bc 4c59 8abd e800 3fbc
000000c0: 94a4 6c3c 426d d43c 8895 723d 0cb2 3ebd
000000d0: 4490 bdbb 84b5 89bc 0ed4 db3c dd9c b2bc
000000e0: ff0f 723d 038f 6ebc 839c 853c 4a39 333d
000000f0: 75f0 f9bc ece5 7c3c 539f 89bc f943 4cbd
00000100: e9a7 34bd 9c9d 983d 790b 9a3c 859a 88bd
00000110: ba15 b0bc b0e8 02bd e34f 223d 437e 8d3d
00000120: 6de9 88bd f692 573d 371c 933d 6c52 98bd
00000130: 361e d1bc 9086 8f3d a875 633b aa0a 48bd
00000140: 44d0 9ebd 87d2 a83a 4377 1a3d 0f9a 94bd
00000150: cb4b 98bc 517d 533c 6a0d cd3c 2683 0bbd
00000160: c837 9e3d df3a 44bd 02b8 5cbd 1afe d73c
00000170: 6a30 75bd f736 243b ff76 9c3d 895c 293d
00000180: 1bc6 213d ab28 8cbd 8717 77bd aeea bfbb
00000190: a28a 6b3d 5670 8abc 5fd1 eabc be03 8cbd
000001a0: 8aa0 1c3d 01c5 673d 1af7 78bd ed1a 0c3d
000001b0: 6e89 e5bc d967 8e3c 4cc6 40bd 5830 53bd
000001c0: c5c8 393d 3786 70bd 1edf f7bc 0e55 933d
000001d0: de83 55bd df1a 633d c3a3 a4ba 8eed 83bd
000001e0: 5899 9abd 99e4 953d e665 8f3d c2c2 8cbd
000001f0: 6048 8b3b 0583 223d 841d 97bd bb01 06bc
00000200: cc9e 63bd 67d6 15bd a349 4d3d f620 c8bc
00000210: a496 1a3d 3951 8ebd b87d 64bd 3527 4abd
00000220: edbc 553d 2899 fcba 9a5e 643d 7824 a63b
00000230: 04d5 a03d 8e74 ac3c 9da5 3abd f709 4fbd
00000240: 3535 a23c 473a 503d 8ec1 83bc 3745 66bd
00000250: 80de 9b3d 5996 5e3d 6d53 943d c61b d7bc
00000260: b24e 9d3c b233 7abd a3df 0fbd 7888 9c3d
00000270: be97 543d b4c4 4bbd bb47 fc3c e236 cd3a
00000280: f2e2 893d a08a 40bb 272f 023d 28ce 40bd
00000290: 7a48 02bd e59c 2b3d 5e0b 163c f56d 58bd
000002a0: 14c2 953d 4eee c3bc 05bb 7f3d ccde 9ebd
000002b0: efa4 5fbd 3af9 303d cb26 d63b 3cc2 813d
000002c0: b8d0 f9bc e271 bc3c c54f 17bd a101 683c
000002d0: 49c1 353c b2eb 9b3d 6ec1 eebb de26 7ebc
000002e0: 6ff9 6cbd 54c9 363d 353d 913d 6c88 57bd
000002f0: fa3e 9abd 4f9b 2dbc 5e11 3a3d 7ee5 cfbb
00000300: 5fa8 a1bd d47f f8bc e06c 343d 3907 b13b
00000310: fcf8 79bd b867 2abd fb42 4a3c b39a 96bb
00000320: 8e58 c53c dbdc b8bc f519 443b 1cbc 313d
00000330: 9342 3cbd cbb1 e8bc 356d 74bd 6c5f 8c3b
00000340: ed10 80bc 4a87 9abd 5c6f 8b3d 406d 1a3c
00000350: 2672 613d b3b6 543d 71ae 423d fe7c 4dbd
00000360: 6f13 26bc e643 0bbd ff09 803d 07b4 8bbd
00000370: 038d 88bd b32e 1abd 2111 6fbd 1bf2 143d
00000380: daa3 1cbd ded6 863d 4898 00bd 4ab4 3cbc
00000390: c250 b23c 3d75 92bd 6e97 96bd 0f2f c33b
000003a0: 715a c93c 98ad 89bd dc37 253d 1249 9abd
000003b0: 64df 3cbd deb5 2b3d 596d 6d3d 45a1 d43c
000003c0: 471e 8b3d 8afb 423c 4b41 79ba c32e 773d
000003d0: af29 09ba ca4a 8e3d b222 9b3d 02b5 44bd
000003e0: 81cf aabc 830c eebc 11f1 9b3c 617c 8d3b
000003f0: da53 813d af15 32bd 4540 953d 31a7 6d3c

weight f4 [80, 80, 2]
0.04650737 0.06716201 0.01139629 0.045163818 0.04544229 -0.04884878 0.045956276 -0.057694625
-0.017772056 -0.011639866 0.05462828 0.07090835 -0.05533794 0.012167296 0.0508215 -0.03570183
-0.055530656 -0.053730067 -0.03426594 -0.035385042 0.019579664 0.042170137 -0.037807934 0.07061993
-0.069138564 0.07549843 -0.036430746 -0.009792694 0.026639577 0.063606374 -0.060839627 0.038074408
-0.0132940505 0.00340535 -0.05331548 0.029838197 -0.04478682 0.03846329 0.025689868 -0.04223173
0.0700744 0.048223004 0.03862647 0.06914116 0.01061177 -0.016374672 -0.06744781 -0.011639755
0.014421017 0.025890576 0.0591323 -0.046483934 -0.0057760007 -0.016783977 0.026792677 -0.02176932
0.05900515 -0.014537763 0.016284553 0.04368759 -0.030462598 0.015411612 -0.016773412 -0.04979176
-0.04403668 0.07440318 0.01877498 -0.06659698 -0.021461222 -0.03191036 0.039565187 0.06898077
-0.06674725 0.052548334 0.07171917 -0.07426 -0.025487302 0.06997161 0.0034653468 -0.048762154
-0.07742477 0.0012860043 0.037652597 -0.07244634 -0.018561844 0.012888171 0.024991786 -0.034007516
0.077134386 -0.047833014 -0.05380241 0.026325176 -0.0597673 0.002501811 0.07627973 0.041283548
0.039433993 -0.06833024 -0.06023112 -0.0058477023 0.0574156 -0.016872922 -0.028619599 -0.068259925
0.038179424 0.056496143 -0.060687765 0.03415204 -0.027975949 0.017356401 -0.046990734 -0.05147939
0.045286767 -0.058630195 -0.030210584 0.07182741 -0.05204644 0.055359103 -0.0012541428 -0.06431751
-0.0753701 0.073075816 0.06990941 -0.06862369 0.0042439443 0.039613873 -0.07367173 -0.008166372
-0.055484723 -0.03652439 0.050040916 -0.024391692 0.037682477 -0.06938252 -0.055696987 -0.04927685
0.05210077 -0.0019241673 0.055667356 0.0050623603 0.07840886 0.02101885 -0.045497052 -0.050467808
0.01976989 0.05075757 -0.01605843 -0.056130704 0.07598932 0.054257877 0.07231183 -0.026217422
0.019172626 -0.06098922 -0.035070624 0.076313004 0.051821604 -0.049670577 0.03074791 0.0015632205
0.066326745 -0.0028942851 0.031310875 -0.046372008 -0.031334665 0.041274972 0.009021874 -0.05205392
0.07203728 -0.023561874 0.06150629 -0.07642046 -0.053789154 0.04256428 0.0064382544 0.06241709
-0.030041803 0.022661634 -0.03639227 0.013950084 0.01092857 0.07500163 -0.007177951 -0.015281647
-0.056995198 0.043962352 0.06986352 -0.05183827 -0.07419606 -0.010438627 0.04475157 -0.0062502017
-0.07776127 -0.029883549 0.04339447 0.0053221784 -0.060121436 -0.0409845 0.012161593 -0.0045277695
0.02373204 -0.02223086 0.0029477975 0.04274737 -0.04527882 -0.027982922 -0.058787555 0.004220168
-0.015400725 -0.07433194 0.06707161 0.009285376 0.054222465 0.051160213 0.046823237 -0.049422413
-0.009985817 -0.03349497 0.06158988 -0.06720064 -0.06568425 -0.03708274 -0.057498485 0.03582325
-0.037673827 0.06486098 -0.030928617 -0.011346415 0.021443514 -0.07044983 -0.072438166 0.005868009
0.024213951 -0.0662265 0.03973698 -0.074215025 -0.045426153 0.041298434 0.0571041 0.025570039
0.06691926 0.011723917 -0.0009367009 0.05945042 -0.0005154581 0.068445966 0.07462394 -0.04731043
-0.020541005 -0.028626818 0.018752929 0.0042536324 0.06220968 -0.042831525 0.07179337 0.014289611
00000000: 837e 3e3d 3c8c 893d 81b7 3a3c b2fd 383d
00000010: b221 3a3d a915 48bd a63c 3c3d 3351 6cbd
00000020: b496 91bc 23b5 3ebc e7c1 5f3d 6638 913d
00000030: 09aa 62bd 5759 473c 352a 503d 153c 12bd
00000040: 1d74 63bd 0f14 5cbd 715a 0cbd e8ef 10bd
00000050: 8865 a03c 98ba 2c3d 7edc 1abd 2fa1 903d
00000060: 8598 8dbd ec9e 9a3d 6838 15bd 8971 20bc
00000070: 3e3b da3c 0f44 823d f932 79bd e9f3 1b3d
00000080: 4acf 59bc 4b2c 5f3b 5561 5abd 3c6f f43c
00000090: 6272 37bd af8b 1d3d 8f73 d23c 2efb 2cbd
000000a0: 2b83 8f3d 7c85 453d ca36 1e3d e199 8d3d
000000b0: fddc 2d3c 2d24 86bc 1422 8abd acb4 3ebc
000000c0: 2146 6c3c 7918 d43c b634 723d f065 3ebd
000000d0: 9b44 bdbb 8d7e 89bc 517c db3c 9355 b2bc
000000e0: 62af 713d cc2f 6ebc 2f67 853c c2f1 323d
000000f0: b38c f9bc fc80 7c3c 6568 89bc 72f2 4bbd
00000100: ce5f 34bd b260 983d fdcd 993c ff63 88bd
00000110: 72cf afbc 70b4 02bd 1b0f 223d ca45 8d3d
00000120: c8b2 88bd ec3c 573d 80e1 923d a015 98bd
00000130: bfca d0bc 474d 8f3d df1a 633b d3ba 47bd
00000140: e190 9ebd 258f a83a 9c39 1a3d bf5e 94bd
00000150: 020f 98bc e828 533c 93bb cc3c 774b 0bbd
00000160: a2f8 9d3d 8dec 43bd ea5f 5cbd e5a7 d73c
00000170: 8ece 74bd 6cf5 233b 8c38 9c3d f018 293d
00000180: 8a85 213d baf0 8bbd e8b4 76bd 159e bfbb
00000190: 9f2c 6b3d 1539 8abc a673 eabc dccb 8bbd
000001a0: 0762 1c3d 8068 673d bc93 78bd 02e3 0b3d
000001b0: d12d e5bc 032f 8e3c 5b79 40bd 0edc 52bd
000001c0: 9e7e 393d 3726 70bd 307c f7bc 401a 933d
000001d0: a62e 55bd 3ac0 623d 0d62 a4ba e6b8 83bd
000001e0: a45b 9abd c6a8 953d aa2c 8f3d 948a 8cbd
000001f0: c910 8b3b 2842 223d 34e1 96bd 3fcc 05bc
00000200: f343 63bd 999a 15bd b4f7 4c3d 16d1 c7bc
00000210: f158 1a3d 6c18 8ebd 8622 64bd 86d6 49bd
00000220: 9e67 553d 5734 fcba 7403 643d 28e2 a53b
00000230: d394 a03d b92f ac3c 1e5b 3abd 55b7 4ebd
00000240: 77f4 a13c 2be7 4f3d f88c 83bc 4fe9 65bd
00000250: 4aa0 9b3d 823d 5e3d 3a18 943d ebc5 d6bc
00000260: e90f 9d3c d5cf 79bd 37a6 0fbd fe49 9c3d
00000270: e442 543d 6073 4bbd 0ae3 fb3c fae4 cc3a
00000280: 51d6 873d 0cae 3dbb d53f 003d 93f0 3dbd
00000290: c758 00bd f20f 293d 7bd0 133c 7e36 55bd
000002a0: 4888 933d d504 c1bc 05ee 7b3d 5582 9cbd
000002b0: 0452 5cbd e257 2e3d fef7 d23b 10a9 7f3d
000002c0: 3a1a f6bc e4a4 b93c 1010 15bd e58e 643c
000002d0: bf0d 333c 749a 993d 0435 ebbb e05f 7abc
000002e0: cc73 69bd de11 343d 9b14 8f3d 5e54 54bd
000002f0: 1bf4 97bd c606 2bbc 6c4d 373d 7ece ccbb
00000300: 4d41 9fbd 58ce f4bc 66be 313d ab65 ae3b
00000310: e541 76bd 5ddf 27bd 6b41 473c af5d 94bb
00000320: b269 c23c 7e1d b6bc d62f 413b de17 2f3d
00000330: 4976 39bd 713c e5bc 38cb 70bd 5649 8a3b
00000340: 5353 7cbc 583b 98bd d75c 893d b121 183c
00000350: 6018 5e3d 5f8d 513d b9c9 3f3d 286f 4abd
00000360: 8d9b 23bc 0632 09bd ac45 7c3d 7da0 89bd
00000370: 7785 86bd 12e4 17bd 8883 6bbd 66bb 123d
00000380: df4f 1abd d5d5 843d 035e fdbc 50e6 39bc
00000390: 4faa af3c 0048 90bd 765a 94bd 6d48 c03b
000003a0: 565c c63c c2a1 87bd 3ec3 223d 0cfe 97bd
000003b0: c610 3abd 8c28 293d fde5 693d 4278 d13c
000003c0: f70c 893d ac15 403c ef8c 75ba 4982 733d
000003d0: cf1f 07ba 662d 8c3d 70d4 983d 95c8 41bd
000003e0: 9c45 a8bc ca82 eabc be9f 993c 0e62 8b3b
000003f0: 94cf 7e3d 1c70 2fbd 6708 933d f91e 6a3c

bias f4 [80]
0.018158672 0.025598336 -0.021390101 -0.07226106 -0.018746788 -0.0365775 0.020031948 -0.032688186
-0.0413796 0.043591652 -0.040971655 -0.048679218 0.018712457 -0.033392042 -0.05771916 -0.006745957
-0.037272215 -0.07367519 0.031020459 0.060042717 -0.019166688 0.032626584 0.034009293 0.025191145
0.01832488 0.075122625 0.011839062 0.0023828275 0.04198758 0.033345208 0.019641478 0.06323263
0.064755455 0.053823505 -0.021107558 0.059227835 0.043654304 -0.0019019214 -0.04573706 0.053261902
0.046372704 0.005566544 -0.06826619 -0.013734636 0.057180565 0.051799297 0.062692985 -0.028275004
0.00066163053 0.07200136 -0.03815453 -0.07409646 -0.019410975 -0.06435081 -0.07432499 0.027353702
-0.02322853 -0.026875298 0.0071066217 0.003029926 -0.019436564 -0.03969334 0.07207706 -0.0010866143
0.0015784239 -0.059933987 -0.012609465 -0.070631616 -0.026139457 -0.04463247 0.06218915 0.06480423
0.014238073 0.01737598 -0.007804771 0.032714948 0.0724019 0.013894228 0.068062514 0.03282176
00000000: 7fc1 943c 9ab3 d13c 4b3a afbc 9bfd 93bd
00000010: dd92 99bc 4ad2 15bd 0a1a a43c 0ce4 05bd
00000020: a87d 29bd 298d 323d e5d1 27bd dc63 47bd
00000030: de4a 993c 18c6 08bd ed6a 6cbd 300d ddbb
00000040: c0aa 18bd 05e3 96bd 9e1e fe3c 5aef 753d
00000050: 7503 9dbc 74a3 053d 544d 0b3d a95d ce3c
00000060: 0f1e 963c e4d9 993d a0f8 413c 3629 1c3b
00000070: 2bfb 2b3d fc94 083d 2ae7 a03c 1c80 813d
00000080: 829e 843d 0976 5c3d c2e9 acbc e398 723d
00000090: dbce 323d e449 f9ba c956 3bbd 2729 5a3d
000000a0: 4ef1 3d3d 8e67 b63b 25cf 8bbd 3d07 61bc
000000b0: 2b36 6a3d 802b 543d 2e65 803d fba0 e7bc
000000c0: 4671 2d3a 7375 933d ed47 1cbd e3bf 97bd
000000d0: c403 9fbc 5cca 83bd b337 98bd df14 e03c
000000e0: c249 bebc 9629 dcbc aade e83b b991 463b
000000f0: 6e39 9fbc 7c95 22bd 239d 933d ba6c 8eba
00000100: 1ee3 ce3a 577d 75bd ee97 4ebc 4fa7 90bd
00000110: 6a22 d6bc 89d0 36bd 0dba 7e3d 15b8 843d
00000120: ce46 693c 1258 8e3c 2abf ffbb 1c00 063d
00000130: 7347 943d 9ea4 633c 5c64 8b3d 1c70 063d

weight_g f4 [80, 1, 1]
0.5657849 0.56775564 0.5868855 0.5835553 0.57181764 0.54746455 0.56373715 0.58091235
0.56045943 0.5980126 0.56095755 0.56428593 0.6009109 0.5743392 0.54317945 0.5738283
0.57435423 0.56735235 0.5851888 0.5741595 0.5771652 0.5589177 0.5665308 0.58423895
0.58696395 0.5888122 0.55823565 0.5618525 0.5695479 0.57802653 0.57033235 0.60798943
0.5573291 0.5627906 0.61013 0.5176157 0.5714882 0.5860298 0.61684686 0.55631316
0.5508698 0.5595424 0.55565065 0.6004192 0.5520098 0.5995843 0.59265333 0.61628276
0.5818411 0.60322654 0.5096876 0.5736996 0.5961003 0.58194506 0.56508017 0.5890107
0.5458598 0.5618989 0.58732796 0.6249554 0.5647193 0.6043738 0.6071265 0.573752
0.5706882 0.5973332 0.60669965 0.57008296 0.5539444 0.5885587 0.5596657 0.5398409
0.5510834 0.57105464 0.60236275 0.53689057 0.5728604 0.58780617 0.551265 0.5421388
00000000: 47d7 103f 6f58 113f 213e 163f e163 153f
00000010: a462 123f a326 0c3f 1451 103f acb6 143f
00000020: 457a 0f3f 5b17 193f ea9a 0f3f 0b75 103f
00000030: 4cd5 193f e507 133f cf0d 0b3f 69e6 123f
00000040: e108 133f 013e 113f efce 153f 1efc 123f
00000050: 19c1 133f 3b15 0f3f 2a08 113f af90 153f
00000060: 4543 163f 65bc 163f 88e8 0e3f 91d5 0f3f
00000070: e4cd 113f 8cf9 133f 4d01 123f 32a5 1b3f
00000080: 1fad 0e3f 0b13 103f 7b31 1c3f 7682 043f
00000090: 0d4d 123f 0d06 163f ade9 1d3f 8a6a 0e3f
000000a0: ce05 0d3f 2c3e 0f3f 1f3f 0e3f 13b5 193f
000000b0: 8450 0d3f 5b7e 193f 21b8 173f b5c4 1d3f
000000c0: 8af3 143f 0e6d 1a3f e37a 023f fadd 123f
000000d0: 079a 183f 5afa 143f 18a9 103f 68c9 163f
000000e0: 78bd 0b3f 9bd8 0f3f 205b 163f 14fd 1f3f
000000f0: 7291 103f 3eb8 1a3f a46c 1b3f 69e1 123f
00000100: 9f18 123f d4ea 183f ab50 1b3f f5f0 113f
00000110: 4dcf 0d3f c8ab 163f 4046 0f3f 0333 0a3f
00000120: cd13 0d3f a330 123f 7234 1a3f a971 093f
00000130: fba6 123f 777a 163f b41f 0d3f 9cc9 0a3f

weight_v f4 [80, 80, 2]
0.028043857 0.022337144 -0.0100250635 -0.024877153 0.041021347 -0.078996375 -0.07164313 -0.058219973
-0.005256609 0.060162086 -0.051099546 0.042250305 -0.02261574 -0.012910334 -0.00068492553 0.020977179
-0.053201143 -0.01013241 -0.061202116 -0.014117171 0.02699214 0.0064630443 0.037816394 0.051137496
0.0055916295 -0.023914406 0.020519817 0.012317898 0.005216859 0.06870423 0.03691546 -0.04016237
0.0048308363 0.035930652 -0.062183812 0.0166704 -0.062200174 0.03107156 0.011949167 -0.0014119076
-0.0050332453 0.071756765 -0.06032195 0.014723141 -0.0023919647 -0.019727724 -0.00904385 0.015383615
-0.029066756 0.0075416057 -0.06777568 -0.0018233 -0.051827546 -0.024118202 -0.04849298 0.08081036
-0.07154876 -0.0193461 -0.060325246 0.07804634 0.066682756 0.056500927 -0.0010050497 0.05796275
0.044599533 0.06779784 0.033231333 -0.051815767 -0.04707163 0.00055915257 0.047849715 -0.044471785
-0.07584196 -0.027447915 0.074789666 0.00997507 0.043290265 -0.0096385535 0.07839466 0.021984614
-0.05002456 0.07104527 0.07558965 0.010924017 -0.02407231 0.04517134 -0.004465475 -0.030275712
0.058568843 -0.030120453 0.0008069626 0.006060173 0.077586345 0.035886 0.018157592 -0.013180647
-0.02891195 0.066932425 0.020608863 0.05536338 -0.03781514 -0.050177205 -0.0051063974 -0.056016263
0.06888248 -0.005883309 -0.015845837 -0.045702595 -0.050756197 0.07592902 -0.07693504 0.028635181
0.030820709 -0.054876268 0.04329678 0.040556654 0.04212476 -0.031185951 0.049546566 0.071299195
-0.03634747 -0.06595285 0.0456094 -0.07236735 -0.036095493 -0.06552267 -0.063787505 0.057128463
0.04461012 -0.051131915 0.008734979 -0.028145835 0.04113393 0.00872399 -0.046040457 -0.048471656
0.06781253 -0.0098159 0.05029292 -0.0788044 -0.033203594 0.0036606414 0.07436444 -0.022422869
0.026295256 0.050171543 -0.048694048 -0.0024914676 0.07117155 0.013088467 0.04409925 -0.0015949123
0.043448362 0.020072684 0.01081879 0.03701198 0.009742534 0.059434745 -0.071413174 -0.038023017
0.0386623 0.047668777 -0.07291089 0.07641521 0.010754675 0.0720389 -0.027613947 0.008617889
0.06785492 -0.0049147955 0.046955455 0.07066487 -0.038252924 -0.006872573 -0.035719857 -0.0018434358
0.03833073 0.061467394 0.06515971 -0.00910691 -0.039996754 -0.020303417 -0.034438588 -0.06297792
-0.0193023 -0.052765775 0.040696803 -0.07884484 0.070563644 0.025807213 -0.06567913 0.06849966
-0.07838762 -0.036073577 0.026799764 -0.020893972 -0.06279504 -0.02403418 0.07601548 0.027342176
0.017402072 -0.02695147 -0.012734668 0.0013404407 -0.012952998 0.073649764 -0.05155658 -0.062712714
-0.0753882 0.037824642 0.013072099 -0.07240271 0.06582233 -0.030139329 0.043039948 -0.06810942
-0.044472866 0.03823318 0.016234333 0.040053226 0.07102484 0.013040425 0.05072697 0.002894615
-0.040648036 -0.064833574 -0.0038840747 0.001808376 0.026663443 0.026434753 0.07844525 0.066405766
0.0800551 -0.003097949 -0.004104613 0.056713797 -0.03801744 -0.009401902 0.010343547 -0.023148572
-0.04723849 -0.037196223 -0.079160765 -0.007827859 -0.004909395 0.041302573 0.0076094163 -0.041798186
0.032855473 0.020397339 0.03505939 0.03739025 -0.050035186 0.06382746 0.049448557 -0.06781241
00000000: 3bbc e53c 63fc b63c 2a40 24bc 2ccb cbbc
00000010: 0006 283d dac8 a1bd a2b9 92bd 1178 6ebd
00000020: a23f acbb 856c 763d c24d 51bd a80e 2d3d
00000030: a544 b9bc de85 53bc 938c 33ba 55d8 ab3c
00000040: 71e9 59bd 6802 26bc 12af 7abd b54b 67bc
00000050: 9f1e dd3c f2c7 d33b 5de5 1a3d 8d75 513d
00000060: fd39 b73b 25e8 c3bc 2d19 a83c 02d1 493c
00000070: 2ff2 aa3b ceb4 8c3d aa34 173d 4c81 24bd
00000080: fe4b 9e3b 052c 133d 74b4 7ebd 5d90 883c
00000090: 9cc5 7ebd c989 fe3c 70c6 433c c20f b9ba
000000a0: eced a4bb 36f5 923d 2614 77bd 5439 713c
000000b0: 82c2 1cbb 099c a1bc a82c 14bc 8f0b 7c3c
000000c0: 681d eebc 931f f73b facd 8abd ccfb eeba
000000d0: 1f49 54bd 8993 c5bc 93a0 46bd e77f a53d
000000e0: 2888 92bd b67b 9ebc 9b17 77bd c2d6 9f3d
000000f0: f890 883d 846d 673d dfbb 83ba 596a 6d3d
00000100: 00ae 363d 98d9 8a3d 941d 083d c53c 54bd
00000110: 2ece 40bd 1894 123a 10fe 433d 0c28 36bd
00000120: 0853 9bbd 73da e0bc 532b 993d 7a6e 233c
00000130: 2251 313d 06eb 1dbc 618d a03d 1419 b43c
00000140: 8ee6 4cbd 2f80 913d bfce 9a3d a6fa 323c
00000150: 4b33 c5bc 9505 393d 1f53 92bb c504 f8bc
00000160: e2e5 6f3d 2bbf f6bc 588a 533a 6a94 c63b
00000170: 97e5 9e3d 33fd 123d 3bbf 943c a4f3 57bc
00000180: c1d8 ecbc de13 893d ebd3 a83c b6c4 623d
00000190: 0ce4 1abd 9d86 4dbd 9153 a7bb 4f71 65bd
000001a0: 4212 8d3d c6c8 c0bb 21cf 81bc a532 3bbd
000001b0: bbe5 4fbd ad80 9b3d 1e90 9dbd 5494 ea3c
000001c0: b67b fc3c f0c5 60bd f757 313d bc1e 263d
000001d0: 038b 2c3d ae79 ffbc 57f1 4a3d 5005 923d
000001e0: 16e1 14bd 4a12 87bd ecd0 3a3d 5535 94bd
000001f0: ded8 13bd c030 86bd 06a3 82bd 89ff 693d
00000200: 1ab9 363d b36f 51bd 281d 0f3c 1892 e6bc
00000210: 0d7c 283d 11ef 0e3c eb94 3cbd 378a 46bd
00000220: 4ce1 8a3d ded2 20bc f3ff 4d3d 3464 a1bd
00000230: 7e00 08bd 5fe7 6f3b 624c 983d 2ab0 b7bc
00000240: 2669 d73c ad80 4d3d 6973 47bd e447 23bb
00000250: 64c2 913d 0271 563c 6aa1 343d 600c d1ba
00000260: e9f6 313d 786f a43c 4b41 313c e099 173d
00000270: 269f 1f3c d971 733d 1241 92bd 06be 1bbd
00000280: 5c5c 1e3d 5640 433d 4e52 95bd 947f 9c3d
00000290: 6034 303c 2189 933d a536 e2bc 0c32 0d3c
000002a0: 85f7 8a3d 4b0c a1bb 5d54 403d beb8 903d
000002b0: 19af 1cbd 5233 e1bb fc4e 12bd 719f f1ba
000002c0: af00 1d3d 3cc5 7b3d 7472 853d 2635 15bc
000002d0: a3d3 23bd 5a53 a6bc 7a0f 0dbd 91fa 80bd
000002e0: db1f 9ebc ed20 58bd b1b1 263d 6779 a1bd
000002f0: ac83 903d a669 d33c c882 86bd 8d49 8c3d
00000300: b089 a0bd e3c1 13bd 2e8b db3c d629 abbc
00000310: b09a 80bd 54e3 c4bc 01ae 9b3d b3fc df3c
00000320: ca8e 8e3c 54c9 dcbc 12a5 50bc bab1 af3a
00000330: d038 54bc b0d5 963d fe2c 53bd 866f 80bd
00000340: 2165 9abd 03ee 1a3d 5b2c 563c df47 94bd
00000350: dccd 863d c1e6 f6bc a84a 303d f47c 8bbd
00000360: 2e29 36bd 659a 1c3d ddfd 843c da0e 243d
00000370: 7975 913d 82a7 553c 15c7 4f3d 95b3 3d3b
00000380: 8e7e 26bd 77c7 84bd f68b 7ebb 0807 ed3a
00000390: 4b6d da3c b28d d83c e7a7 a03d bfff 873d
000003a0: eef3 a33d f606 4bbb fd7f 86bb ba4c 683d
000003b0: 2db8 1bbd 6f0a 1abc fb77 293c 13a2 bdbc
000003c0: 267d 41bd 115b 18bd 0a1f a2bd 6c40 00bc
000003d0: fdde a0bb e32c 293d 6958 f93b 9334 2bbd
000003e0: 7693 063d 5218 a73c 6f9a 0f3d 8526 193d
000003f0: b2f1 4cbd f9b7 823d 928a 4a3d 3ce1 8abd

weight f4 [80, 80, 2]
0.02805536 0.022346307 -0.010029176 -0.024887359 0.041038174 -0.07902878 -0.071672514 -0.058243856
-0.0052587655 0.060186766 -0.05112051 0.042267635 -0.022625018 -0.01291563 -0.0006852065 0.020985784
-0.053222965 -0.010136566 -0.06122722 -0.014122962 0.027003212 0.0064656953 0.037831906 0.051158473
0.0055939234 -0.023924217 0.020528235 0.01232295 0.005218999 0.06873242 0.036930602 -0.040178843
0.0048328177 0.03594539 -0.06220932 0.016677238 -0.06222569 0.031084307 0.011954068 -0.0014124868
-0.00503531 0.0717862 -0.060346693 0.01472918 -0.0023929458 -0.019735817 -0.009047559 0.015389926
-0.02907868 0.007544699 -0.06780348 -0.001824048 -0.051848806 -0.024128094 -0.048512872 0.08084351
-0.07157811 -0.019354034 -0.060349993 0.07807835 0.06671011 0.0565241 -0.0010054619 0.057986524
0.044617828 0.06782565 0.033244964 -0.051837023 -0.047090936 0.0005593819 0.047869343 -0.04449003
-0.07587308 -0.027459174 0.07482035 0.009979161 0.043308023 -0.009642507 0.078426816 0.021993633
-0.05004508 0.07107441 0.07562066 0.010928498 -0.024082184 0.04518987 -0.004467307 -0.03028813
0.058592867 -0.030132808 0.00080729363 0.0060626585 0.077618174 0.03590072 0.01816504 -0.013186053
-0.02892381 0.06695988 0.020617317 0.05538609 -0.03783065 -0.050197788 -0.005108492 -0.05603924
0.06891073 -0.0058857226 -0.015852338 -0.04572134 -0.050777018 0.07596017 -0.0769666 0.028646927
0.03083335 -0.05489878 0.04331454 0.04057329 0.042142037 -0.031198744 0.04956689 0.07132844
-0.03636238 -0.065979905 0.045628108 -0.07239703 -0.0361103 -0.065549545 -0.06381367 0.0571519
0.04462842 -0.05115289 0.0087385615 -0.02815738 0.0411508 0.008727568 -0.046059344 -0.048491538
0.067840345 -0.009819926 0.05031355 -0.07883673 -0.033217214 0.003662143 0.07439494 -0.022432067
0.026306042 0.05019212 -0.048714023 -0.0024924895 0.07120074 0.013093836 0.04411734 -0.0015955665
0.043466184 0.020080917 0.010823227 0.03702716 0.00974653 0.059459124 -0.07144247 -0.038038615
0.038198676 0.04709715 -0.07203657 0.07549887 0.010625709 0.07117503 -0.027282812 0.008514547
0.067041226 -0.004855859 0.046392385 0.06981748 -0.03779421 -0.0067901597 -0.03529152 -0.00182133
0.03787108 0.0607303 0.064378336 -0.008997703 -0.039517127 -0.020059947 -0.034025613 -0.06222271
-0.019070834 -0.052133027 0.040208783 -0.07789936 0.069717474 0.025497742 -0.06489153 0.06767824
-0.07744762 -0.035640996 0.026478391 -0.02064342 -0.062042028 -0.02374597 0.07510393 0.027014298
0.017193392 -0.026628278 -0.012581959 0.0013243667 -0.01279767 0.07276659 -0.050938334 -0.061960686
-0.07448418 0.03737106 0.012915343 -0.071534485 0.06503302 -0.029777909 0.042523827 -0.06729268
-0.043939564 0.0377747 0.016039656 0.039572924 0.07017314 0.01288405 0.05011867 0.002859904
-0.0401606 -0.06405611 -0.0038374984 0.0017866907 0.026343705 0.026117757 0.07750456 0.065609455
0.07909511 -0.0030607996 -0.004055392 0.05603371 -0.03756155 -0.009289158 0.010219511 -0.022870984
-0.046672024 -0.03675018 -0.0782115 -0.0077339904 -0.004850523 0.04080729 0.007518167 -0.04129696
0.032461483 0.020152742 0.03463897 0.036941882 -0.049435183 0.063062064 0.048855588 -0.066999234
00000000: 5bd4 e53c 9a0f b73c 6a51 24bc 93e0 cbbc
00000010: a517 283d d7d9 a1bd 0ac9 92bd 1c91 6ebd
00000020: b951 acbb 6686 763d bd63 51bd d420 2d3d
00000030: 1a58 b9bc 149c 53bc 6e9f 33ba 61ea ab3c
00000040: 5300 5abd d713 26bc 65c9 7abd ff63 67bc
00000050: d735 dd3c 2fde d33b a1f5 1a3d 8c8b 513d
00000060: 3b4d b73b b8fc c3bc d42a a83c 33e6 493c
00000070: 2304 ab3b 95c3 8c3d 8b44 173d 9292 24bd
00000080: 9d5c 9e3b 793b 133d 33cf 7ebd b49e 883c
00000090: 5de0 7ebd 84a4 fe3c ffda 433c 3123 b9ba
000000a0: 3eff a4bb a504 933d 182e 77bd a952 713c
000000b0: f8d2 1cbb 02ad a1bc 373c 14bc 0726 7c3c
000000c0: 6936 eebc 8639 f73b 8ddc 8abd e514 efba
000000d0: 6a5f 54bd 48a8 c5bc 6fb5 46bd 4891 a53d
000000e0: 8b97 92bd 5a8c 9ebc 8e31 77bd 8be7 9f3d
000000f0: 4f9f 883d d185 673d b4c9 83ba 4783 6d3d
00000100: 2fc1 363d 2de8 8a3d df2b 083d 0f53 54bd
00000110: 6de2 40bd 7ca3 123a a512 443d 2d3b 36bd
00000120: 5863 9bbd 10f2 e0bc 693b 993d a37f 233c
00000130: c163 313d 9bfb 1dbc 3d9e a03d fe2b b43c
00000140: 12fc 4cbd 768f 913d 01df 9a3d 710d 333c
00000150: 0048 c5bc 0319 393d 7d62 92bb d01e f8bc
00000160: 13ff 6f3d 14d9 f6bc 8fa0 533a 44a9 c63b
00000170: 47f6 9e3d a20c 133d dace 943c 510a 58bc
00000180: a0f1 ecbc 4322 893d a6e5 a83c 86dc 623d
00000190: 50f4 1abd 329c 4dbd 2365 a7bb 6789 65bd
000001a0: 1221 8d3d 05dd c0bb c3dc 81bc 4d46 3bbd
000001b0: 90fb 4fbd 0191 9b3d aaa0 9dbd f6ac ea3c
000001c0: 3996 fc3c 8bdd 60bd 966a 313d 2e30 263d
000001d0: 219d 2c3d 8294 ffbc a706 4b3d a514 923d
000001e0: b8f0 14bd 7920 87bd 8ae4 3a3d e544 94bd
000001f0: 65e8 13bd d73e 86bd beb0 82bd 1c18 6a3d
00000200: 4acc 363d b185 51bd 2f2c 0f3c 4eaa e6bc
00000210: be8d 283d 13fe 0e3c b9a8 3cbd 109f 46bd
00000220: e1ef 8a3d c1e3 20bc 9515 4e3d 2775 a1bd
00000230: c60e 08bd 9000 703b 605c 983d 74c3 b7bc
00000240: c57f d73c 4196 4d3d 5b88 47bd 0959 23bb
00000250: b2d1 913d 8787 563c 62b4 343d 5422 d1ba
00000260: 9909 323d bc80 a43c e853 313c cba9 173d
00000270: e9af 1f3c 698b 733d 6e50 92bd 61ce 1bbd
00000280: 3776 1c3d f1e8 403d e987 93bd 279f 9a3d
00000290: 7417 2e3c 37c4 913d 3480 dfbc 9980 0b3c
000002a0: e94c 893d e61d 9fbb f105 3e3d 78fc 8e3d
000002b0: 1ace 1abd fd7f debb d78d 10bd b2b9 eeba
000002c0: b51e 1b3d 56c0 783d cad8 833d 1a6b 13bc
000002d0: b6dc 21bd c254 a4bc 715e 0bbd 3edd 7ebd
000002e0: 703a 9cbc 7189 55bd f7b1 243d b389 9fbd
000002f0: 09c8 8e3d a4e0 d03c dae5 84bd e49a 8a3d
00000300: dc9c 9ebd 4bfc 11bd 36e9 d83c 641c a9bc
00000310: c81f 7ebd e986 c2bc 17d0 993d 174d dd3c
00000320: 28d9 8c3c 8c23 dabc 9024 4ebc 5f96 ad3a
00000330: 52ad 51bc a606 953d b7a4 50bd 7dca 7dbd
00000340: 298b 98bd 6612 193d e09a 533c ac80 92bd
00000350: 0830 853d cdf0 f3bc 772d 2e3d bfd0 89bd
00000360: f9f9 33bd a5b9 1a3d 9965 833c 3817 223d
00000370: efb6 8f3d 9f17 533c 3c49 4d3d 3a6d 3b3b
00000380: 717f 24bd da2f 83bd 8a7e 7bbb 642f ea3a
00000390: c1ce d73c e8f4 d53c b6ba 9e3d 405e 863d
000003a0: 9efc a13d b297 48bb 18e3 84bb 9a83 653d
000003b0: 24da 19bd 8d31 18bc bc6f 273c ee5b bbbc
000003c0: 2a2b 3fbd 5b87 16bd 5a2d a0bd 6a6d fdbb
000003d0: 23f1 9ebb 8b25 273d f55a f63b 0027 29bd
000003e0: 55f6 043d 5d17 a53c 98e1 0d3d 5f50 173d
000003f0: 8c7c 4abd af26 813d cc1c 483d e536 89bd

bias f4 [80]
-0.043340277 -0.059295826 0.051580317 0.062195316 0.059870217 0.021031354 0.025751777 -0.010567101
0.06637998 0.05441729 0.01971294 0.042529196 0.013811394 -0.049100652 0.0026557483 -0.019610064
-0.045565713 0.06344746 0.013787784 -0.06772434 0.043767214 -0.04715611 0.030068891 -0.07350736
-0.002941938 -0.026952868 0.052653916 -0.03770381 -0.0523146 -0.068005994 0.039228503 0.06785493
-0.00053260534 0.0051775454 -0.04479106 -0.053269845 -0.04356348 0.03077157 -0.023484657 -0.034890067
-0.020116068 0.057843562 0.016503796 -0.00633581 -0.046514157 -0.0075515104 -0.06101732 -0.07332767
0.029789688 0.02149764 -0.014499625 -0.0037428886 -0.0010218425 -0.038696494 -0.0530074 0.04761188
-0.009438366 -0.013123665 0.03881346 -0.079863235 -0.04521385 -0.022167437 -0.030716028 0.034192402
0.016542953 0.027076224 -0.027091248 -0.02345494 -0.048677333 0.0072255805 -0.030377954 -0.07193786
-0.020565666 0.0636943 -0.043859176 0.034415554 0.003602424 0.078943625 0.048069052 -0.05584827
00000000: 9385 31bd 2ee0 72bd e245 533d 84c0 7e3d
00000010: 793a 753d f249 ac3c 64f5 d23c a221 2dbc
00000020: 3af2 873d aae4 5e3d 087d a13c 1833 2e3d
00000030: 2f49 623c c41d 49bd 100c 2e3b 49a5 a0bc
00000040: 1da3 3abd bef0 813d 28e6 613c 0fb3 8abd
00000050: 4045 333d c426 41bd 0953 f63c 078b 96bd
00000060: 87cd 40bb 43cc dcbc a2ab 573d 4f6f 1abd
00000070: d647 56bd ba46 8bbd 11ae 203d 87f7 8a3d
00000080: 8a9e 0bba 66a8 a93b d576 37bd 7b31 5abd
00000090: 9f6f 32bd a914 fc3c e562 c0bc e3e8 0ebd
000000a0: 74ca a4bc 5fed 6c3d f832 873c a09c cfbb
000000b0: a185 3ebd a972 f7bb 4ced 79bd d12c 96bd
000000c0: 8109 f43c d21b b03c d68f 6dbc 404b 75bb
000000d0: 58ef 85ba 3780 1ebd 4a1e 59bd ad04 433d
000000e0: 60a3 1abc a404 57bc ddfa 1e3d 568f a3bd
000000f0: 2832 39bd 7c98 b5bc 2ea0 fbbc 550d 0c3d
00000100: 1685 873c f5ce dd3c 77ee ddbc 9324 c0bc
00000110: e261 47bd 90c4 ec3b 30db f8bc 2854 93bd
00000120: 5479 a8bc 2872 823d aea5 33bd 53f7 0c3d
00000130: a516 6c3b 32ad a13d 0ee4 443d 28c1 64bd

weight_g f4 [80, 1, 1]
0.58135617 0.59177387 0.5694447 0.55556077 0.60417503 0.61329174 0.5747798 0.5886026
0.5615696 0.5835793 0.5347664 0.5676269 0.5650342 0.54310685 0.5957214 0.5756038
0.5738704 0.5979545 0.6038599 0.5604562 0.55568635 0.5714263 0.58572847 0.5433495
0.5387057 0.55137664 0.5576646 0.5735502 0.5825397 0.5673463 0.5673989 0.5839126
0.59563416 0.58707446 0.5860603 0.58149606 0.5878938 0.5736958 0.5702452 0.56891406
0.594626 0.59142315 0.6035987 0.5270031 0.557734 0.5657825 0.5879817 0.56699806
0.56959707 0.6021238 0.5609092 0.5942512 0.5854538 0.5912575 0.59093475 0.560826
0.5884836 0.5929279 0.59878296 0.5985803 0.59515196 0.58013624 0.55920887 0.5366547
0.60397434 0.55241585 0.5958719 0.5994599 0.5683745 0.59286577 0.61375564 0.5759491
0.58531564 0.5868925 0.5747906 0.5885476 0.6260277 0.55915534 0.60948217 0.57879937
00000000: c2d3 143f 7e7e 173f 21c7 113f 3b39 0e3f
00000010: 37ab 1a3f b000 1d3f c524 133f a9ae 163f
00000020: 06c3 0f3f 7465 153f 73e6 083f ff4f 113f
00000030: 15a6 103f 0d09 0b3f 3381 183f c55a 133f
00000040: 2ce9 123f 8c13 193f 9096 1a3f 0f7a 0f3f
00000050: 7641 0e3f fe48 123f 4df2 153f f418 0b3f
00000060: 9ee8 093f 0527 0d3f 1bc3 0e3f 30d4 123f
00000070: 5221 153f 9b3d 113f 0e41 113f 4c7b 153f
00000080: 7b7b 183f 834a 163f 0c08 163f eddc 143f
00000090: 3580 163f badd 123f 97fb 113f 5aa4 113f
000000a0: 6939 183f 8267 173f 7285 1a3f ade9 063f
000000b0: a8c7 0e3f 1fd7 103f f885 163f c926 113f
000000c0: 1dd1 113f c924 1a3f bf97 0f3f d920 183f
000000d0: 4de0 153f a75c 173f 8047 173f 4b92 0f3f
000000e0: dca6 163f 1fca 173f d749 193f 8f3c 193f
000000f0: e15b 183f cf83 143f 5028 0f3f 3462 093f
00000100: 109e 1a3f 206b 0d3f 108b 183f 3476 193f
00000110: fe80 113f 0dc6 173f 171f 1d3f 6671 133f
00000120: 3fd7 153f 963e 163f 7a25 133f 0eab 163f
00000130: 5a43 203f ce24 0f3f 0607 1c3f 322c 143f
